prova_net.pth (torch, 154825 bytes, 9 tensors)

decoder.0.weight f4 [60, 20]
0	0xbceae90f	-0.028675584
1	0xbe2d573c	-0.16927809
2	0x3d61cf4e	0.05512934
3	0xbe12e162	-0.14343789
4	0xbe595eed	-0.21227618
5	0xbce73078	-0.028221354
6	0x3df7ae39	0.12093777
7	0xbda23c11	-0.07921613
8	0x3e1273c4	0.14301974
9	0x3d23de9d	0.040007222
10	0xbdcce200	-0.100040436
11	0xbdd6f5d6	-0.10496108
12	0x3e6924c5	0.22767933
13	0x3e2fe8b7	0.17178617
14	0x3e6313da	0.22175542
15	0xbc95ff07	-0.018310083
16	0xbdfa8f30	-0.12234342
17	0x3e20473f	0.15652178
18	0x3c107399	0.008816623
19	0xbce123bb	-0.027482858
20	0xbe5aa287	-0.21351062
21	0xbe570eb4	-0.21001703
22	0x3e0cbc3c	0.1374368
23	0xbd899b02	-0.067190185
24	0x3cce84d6	0.025209825
25	0x3df8e139	0.12152333
26	0xbd812e53	-0.06307664
27	0xbd8ed76d	-0.06974683
28	0x3cce1764	0.025157638
29	0xbdeaf979	-0.114733644
30	0x3e21b810	0.1579287
31	0xbe4f0782	-0.20217708
32	0x3dec1129	0.115267105
33	0xbe50aa62	-0.20377496
34	0x3e13f6fc	0.14449686
35	0x3e601031	0.21881177
36	0x3e1902cb	0.14942472
37	0xbe0bb520	-0.13643312
38	0xbe26a6ee	-0.16274616
39	0xbe0f8b93	-0.14018087
40	0xbe45efbd	-0.19329734
41	0x3e5038bc	0.20334142
42	0xbe0ef2f4	-0.13959867
43	0xbd18e15f	-0.037324306
44	0xbe1faf66	-0.15594253
45	0x3de72786	0.11286835
46	0xbdc4a89f	-0.096024744
47	0x3cbb9495	0.022897998
48	0x3db373ae	0.087622985
49	0xbda20411	-0.07910932
50	0xbd487729	-0.048941765
51	0x3e3e9b1b	0.18613856
52	0x3d8e7028	0.06954986
53	0xbc5977e4	-0.013273213
54	0x3d6e50d7	0.058182564
55	0x3d9ba375	0.07599536
56	0x3e6ce7b1	0.23135258
57	0xbdef7abf	-0.11693334
58	0xbda78547	-0.081797175
59	0xbdd8ef55	-0.10592524
60	0xbd5a05da	-0.053228237
61	0x3e1e9d2e	0.15489647
62	0x3d9cea12	0.07661833
63	0xbd4aa695	-0.04947527
64	0xbe3c8032	-0.18408278
65	0x3d672440	0.056431055
66	0x3c81f58e	0.01586416
67	0xbd8fe27c	-0.0702562
68	0xbc8d90b1	-0.017280908
69	0xbe2e5fa1	-0.17028667
70	0xbe6bba53	-0.23020296
71	0xbd87ace0	-0.0662477
72	0xbdb7cbad	-0.08974395
73	0xbd86fd6d	-0.06591306
74	0x3c9ceec0	0.019156814
75	0xbdaf8743	-0.08570721
76	0xbd6d53e3	-0.05794133
77	0xbd86f843	-0.06590321
78	0xbd9524d6	-0.072824165
79	0xbd772745	-0.060340185
80	0x3c082504	0.008309606
81	0x3e4cde2b	0.20006625
82	0xbd27f98c	-0.04100947
83	0x3e512c6f	0.20427106
84	0xbdeeb6b3	-0.11655941
85	0xbe5d2095	-0.2159446
86	0xbdb6ff66	-0.08935432
87	0xbde3456e	-0.11097227
88	0xbe2af881	-0.16696359
89	0xbe65b66a	-0.22432867
90	0xbdc0cb10	-0.09413731
91	0xbd898bac	-0.067160934
92	0x3dc5e221	0.09662271
93	0xbb89cf85	-0.0042056465
94	0x3e332e83	0.17498212
95	0x3dd351cf	0.10318338
96	0xbdd53c1f	-0.10411858
97	0xbe358bd2	-0.17729118
98	0xbe615e97	-0.2200874
99	0x3e3ffb61	0.18748237
100	0xbe0b294c	-0.13589972
101	0xbc7e4ebe	-0.015521703
102	0x3e2f45a5	0.17116411
103	0x3e40f48d	0.18843289
104	0x3d9a100f	0.07522594
105	0xbe0511d2	-0.12995079
106	0x3e5600b6	0.20898709
107	0xbd7d068d	-0.061773825
108	0x3d96cd97	0.07363432
109	0x3d8244d8	0.06360787
110	0xbd83d9be	-0.064380154
111	0x3de7ea5f	0.113239996
112	0xbd072333	-0.032992553
113	0x3e15c38e	0.1462538
114	0x3e63f856	0.22262701
115	0xbd18221d	-0.037141908
116	0x3d90c646	0.07069068
117	0xbcc6d87a	-0.024273146
118	0x3dffa75f	0.124830954
119	0xbd8d702c	-0.06906161
120	0xbdc23aad	-0.09483848
121	0x3ddf285e	0.10896371
122	0x3de95fe9	0.113952465
123	0xbe665795	-0.22494347
124	0x3e0d62b8	0.1380719
125	0xbe0508e5	-0.12991674
126	0xbdace226	-0.08441572
127	0xbd8e6cfb	-0.0695438
128	0xbd5bf28e	-0.053698115
129	0x3dde9309	0.108678885
130	0x3dbc5445	0.09195761
131	0xbe2ab159	-0.16669215
132	0xbe3727a8	-0.17886221
133	0xbc564ce5	-0.0130798565
134	0x3e223f2c	0.1584441
135	0x3ddf6400	0.10907745
136	0xbe168cea	-0.14702192
137	0x3cd211a1	0.025643172
138	0xbd9163c9	-0.07099111
139	0xbd98ef44	-0.07467511
140	0x3d42c20c	0.04754834
141	0x3dd9379e	0.10606311
142	0xbe0f58e7	-0.13998757
143	0xbd72877b	-0.059211235
144	0xbd795238	-0.060869426
145	0x3e3bde5d	0.18346544
146	0x3df0320d	0.117282964
147	0x3d4d92de	0.05018889
148	0x3c8d86b5	0.017276147
149	0xbe47e85b	-0.1952223
150	0xbe64e7fe	-0.22354123
151	0xbd84d314	-0.064855725
152	0xbe078bcf	-0.13236926
153	0x3d8de64e	0.06928693
154	0x3def9e44	0.11700109
155	0x3dd940ab	0.106080376
156	0x3d94ad56	0.07259624
157	0xbc1ccfd8	-0.009571038
158	0x3e08c12a	0.13354936
159	0x3e171b6a	0.14756551
160	0xbbd5e92a	-0.0065280395
161	0x3e6160d2	0.2200959
162	0xbc6cce35	-0.01445346
163	0x3d99e8c4	0.075151
164	0x3d918409	0.07105262
165	0x3d9f5486	0.077797934
166	0xbdcd4d35	-0.10024492
167	0xbe24a5dc	-0.16078895
168	0xbd3b2d6e	-0.045697622
169	0x3e1d0ef6	0.15337738
170	0xbe370cc6	-0.17875966
171	0xbda6f519	-0.081522174
172	0xbe338bd0	-0.17533803
173	0xbdc85668	-0.09782106
174	0x3e619277	0.22028528
175	0xbd219af3	-0.03945441
176	0xbe3a166b	-0.18172614
177	0xbcd3ed2d	-0.02586993
178	0x3e29f97d	0.16599078
179	0xbe203c71	-0.15648057
180	0x3d46dbdb	0.048549514
181	0xbcf1e1b4	-0.029526569
182	0x3c5c37cd	0.013441038
183	0xbde583c1	-0.11206771
184	0xbc252a45	-0.010080879
185	0x3e565695	0.20931466
186	0xbd943d1d	-0.07238219
187	0x3e62a872	0.2213457
188	0xbc7702ad	-0.015076322
189	0x3e4d63e9	0.20057644
190	0x3e3d6fec	0.18499726
191	0xbd2ee210	-0.04269606
192	0xbd85b5a2	-0.06528784
193	0x3d6dc534	0.058049396
194	0xbdcbe9a3	-0.09956672
195	0xbe376ed7	-0.17913376
196	0x3dedf1f8	0.116184175
197	0x3ccde46d	0.025133336
198	0x3e130be5	0.14360006
199	0xbdf96dfd	-0.12179182
200	0xbe3a04ce	-0.18165895
201	0xbe36ebc4	-0.17863375
202	0xbdd1258c	-0.102122396
203	0xbdfc55b0	-0.12321031
204	0x3bb51c93	0.005527088
205	0xbd9ac7e9	-0.07557661
206	0x3e561922	0.20908025
207	0xbe3b9b93	-0.18321066
208	0xbe6906fc	-0.2275657
209	0x3d81c114	0.06335655
210	0xbe3f0ff2	-0.18658426
211	0xbe33503f	-0.1751108
212	0xbdb6bafb	-0.089223824
213	0xbe44482b	-0.19168155
214	0xbe5e2957	-0.21695457
215	0x3d4be9b4	0.049783424
216	0x3df3d483	0.11905768
217	0x3e2c504b	0.16827504
218	0x3c191d54	0.009345371
219	0xbe241078	-0.16021907
220	0x3e05ae6d	0.1305482
221	0xbe5b2f3b	-0.21404736
222	0xbdf527d0	-0.11970484
223	0xbb3644d9	-0.0027812032
224	0x3e5712a6	0.21003208
225	0xbdcb991a	-0.09941311
226	0x3d98111c	0.07425138
227	0xbe2d61a0	-0.16931772
228	0xbd718107	-0.05896094
229	0x3d229a30	0.039697826
230	0x3db30a9b	0.08742257
231	0xbd698413	-0.05701072
232	0x3e2e3366	0.17011794
233	0xbe20200e	-0.15637228
234	0xbe435997	-0.19077145
235	0xbd98e9a7	-0.07466441
236	0xbe3d3f94	-0.18481284
237	0x3d23c9f7	0.03998753
238	0xbd39368a	-0.045218028
239	0xbd5dd166	-0.054154776
240	0xbd5abaf3	-0.053400945
241	0x3d5e3c9d	0.054257024
242	0x3e483994	0.19553214
243	0xbe02c9b5	-0.12772258
244	0xbc445aa0	-0.011984497
245	0x3e15c99d	0.1462769
246	0x3e2f2f9b	0.17108004
247	0xbdfaca05	-0.122455634
248	0xbda059ee	-0.07829653
249	0x3d75c196	0.05999907
250	0xbd4801a3	-0.048829686
251	0xbe5d6fb8	-0.21624649
252	0x3e3323a9	0.17494072
253	0x3bbf3e34	0.0058362726
254	0x3e61ff1d	0.22069974
255	0xbde8ddfd	-0.11370466

decoder.0.bias f4 [60]
0	0x3e17de28	0.1483084
1	0xbca9675c	-0.020679168
2	0x3dd31bda	0.10308047
3	0x3db4061c	0.08790228
4	0xbd989a67	-0.07451325
5	0x3e1ff168	0.15619433
6	0x3e4a789e	0.19772574
7	0xbdd3c63a	-0.10340543
8	0xbd3bf74d	-0.04589014
9	0xbdd298a5	-0.10283021
10	0x3e527628	0.20552886
11	0x3e474c96	0.19462809
12	0xbe01306a	-0.12616125
13	0xbd62b5ab	-0.055349033
14	0x3c8b012e	0.016968336
15	0xbe58a9f3	-0.2115858
16	0x3d00d3bc	0.031451926
17	0x3dbc8727	0.09205466
18	0x3e326846	0.1742259
19	0x3d88bba9	0.06676418
20	0xbe2a6ff1	-0.16644265
21	0x3e497dcf	0.19676898
22	0x3e14d0bf	0.14532755
23	0x3e2272fb	0.15864174
24	0x3e08df0c	0.13366336
25	0xbd0be599	-0.03415451
26	0x3e7391fe	0.2378616
27	0x3c38618c	0.011253726
28	0xbe28c399	-0.16480865
29	0xbd62cca5	-0.055370945
30	0x3e3d89f4	0.18509656
31	0xbe60052d	-0.21876974
32	0x3df965d1	0.12177623
33	0x3e208f49	0.15679659
34	0xbe251905	-0.16122825
35	0xbe01458f	-0.12624191
36	0xbd915f9e	-0.07098316
37	0x3d8c3df9	0.06847758
38	0xbd4d0e3a	-0.050062396
39	0xbd07826f	-0.033083376
40	0xbdaad3e7	-0.083411984
41	0xbd68393b	-0.056695204
42	0xbd3aa0a6	-0.045563363
43	0x3e2cdc81	0.1688099
44	0xbe17c451	-0.14820983
45	0xbe2c9f89	-0.16857733
46	0xbe26bd9a	-0.16283265
47	0xbe318201	-0.17334749
48	0xbe228c66	-0.1587387
49	0xbe154e1f	-0.14580582
50	0x3d338c1b	0.043834787
51	0xbdea944b	-0.11454066
52	0x3da63b18	0.0811674
53	0x3e49aa73	0.19693927
54	0xbb670d18	-0.0035255607
55	0xbe1624a3	-0.14662413
56	0x3d80506f	0.062653415
57	0xbdb2aa0d	-0.08723841
58	0xbd14211c	-0.036164388
59	0xbdc78e80	-0.097439766

decoder.2.weight f4 [576, 60]
0	0x3bb37e63	0.005477713
1	0x3df4b7fa	0.11949153
2	0x3c3658a6	0.011129534
3	0xbcc056ed	-0.02347895
4	0xbd97d7bd	-0.07414196
5	0xbc6ccd28	-0.01445321
6	0x3df0defc	0.11761281
7	0xbda13504	-0.0787144
8	0xbcf61bb9	-0.030042516
9	0xbd9d19ca	-0.076709345
10	0x3e038f75	0.12847693
11	0xbdea3744	-0.11436322
12	0xbda4a5d0	-0.08039439
13	0xbd917bc8	-0.071036875
14	0x3d79cd1a	0.060986616
15	0xbdc31814	-0.09526077
16	0x3d7fd351	0.062457386
17	0x3c104d1f	0.00880745
18	0x3cd3b670	0.025843829
19	0x3d0d95b5	0.0345666
20	0x3db5e055	0.088806786
21	0x3e05d313	0.130688
22	0xbdc205bd	-0.09473751
23	0xbd10c4f6	-0.035344087
24	0xbd8c7f8d	-0.06860266
25	0x3b6c2fb1	0.0036039168
26	0x3b90f171	0.0044233133
27	0xbc8a88f6	-0.016911011
28	0xbdaa144b	-0.08304652
29	0x3b9c7016	0.004774104
30	0xbb87ee80	-0.0041483045
31	0x3da2f567	0.07956963
32	0x3d56d93d	0.05245327
33	0xbc137285	-0.008999472
34	0xbddf2e22	-0.10897471
35	0xbde41a13	-0.11137786
36	0x3c88b674	0.016688563
37	0x3dcb5a10	0.099292874
38	0xbcdb761a	-0.026789714
39	0x3d1762c5	0.03695943
40	0xbdfe99d3	-0.124316834
41	0xbdb22815	-0.08699051
42	0xbc8a6beb	-0.016897162
43	0x3e021ec7	0.12707053
44	0xbddb379c	-0.10703966
45	0xbd799c14	-0.060939863
46	0xbd6feb0c	-0.058573768
47	0xbd44ef82	-0.048079975
48	0x3c86e23b	0.016465297
49	0xbdd24f3a	-0.102690175
50	0x3dc677bd	0.09690807
51	0x3d75e6fd	0.06003474
52	0x3dc1c286	0.094609305
53	0xbd2ada80	-0.041712284
54	0x3e04bd4e	0.12962839
55	0xbcf211ab	-0.02954944
56	0x3cd35ba5	0.025800535
57	0x3d3f3f8d	0.046691466
58	0xbdba33f3	-0.0909194
59	0xbce0f71b	-0.02746158
60	0xbda98355	-0.08277003
61	0x3d9646ae	0.073377
62	0xbcc5299f	-0.024067698
63	0xbd198be4	-0.037486926
64	0x3cfae5ee	0.030627217
65	0x3d4b8a44	0.049692407
66	0x3e037f67	0.12841569
67	0x3dcd3a26	0.100208566
68	0x3cb6302e	0.02223977
69	0x3d4f9f69	0.050689135
70	0xbcabef7b	-0.020988217
71	0xbdd07a28	-0.101795495
72	0xbdf8c81e	-0.12147544
73	0x3d07d815	0.033165056
74	0xbdb69593	-0.08915248
75	0xbda5caaa	-0.08095296
76	0x3d4df7e1	0.050285224
77	0xbd85cc34	-0.06533089
78	0xbb96626e	-0.0045893705
79	0xbd66da9b	-0.056360822
80	0xbba799ad	-0.005114755
81	0x3dc0e440	0.09418535
82	0xbdbd0444	-0.09229329
83	0x3d7df583	0.062001716
84	0xbca68ee5	-0.02033181
85	0xbcf52c8e	-0.029928472
86	0xbdeb3de2	-0.114864126
87	0x3df12ade	0.117757544
88	0xbd03bb19	-0.032160852
89	0xbc1605db	-0.0091566695
90	0xbdad9126	-0.084749505
91	0xbd0fd213	-0.03511245
92	0x3defa818	0.11701983
93	0xbd5182bf	-0.05115008
94	0xbd688567	-0.056767847
95	0xbd84a561	-0.06476856
96	0x3d284c88	0.04108861
97	0x3dceb96e	0.10093962
98	0xbd33f78d	-0.043937255
99	0xbd849869	-0.064743824
100	0x3dc794e4	0.097451955
101	0x3d1e4dd8	0.038648456
102	0x3d337c3a	0.043819644
103	0x3c6c8edc	0.014438357
104	0xbdb4e9cc	-0.08833656
105	0x3daf2639	0.08552212
106	0xbdf67ef9	-0.12035937
107	0xbdda38a2	-0.10655333
108	0xbd0da9ae	-0.034585647
109	0xbd854492	-0.065072194
110	0x3d2a3b32	0.04156036
111	0x3c93cd56	0.018042248
112	0x3dc805c5	0.097667255
113	0xbccbd6cf	-0.024882702
114	0xbdf9c953	-0.12196603
115	0xbdf6e37f	-0.1205511
116	0xbcdf37dc	-0.027248316
117	0x3d56086d	0.05225413
118	0xbd8362d6	-0.06415336
119	0x3b8dd49e	0.0043283245
120	0xbd8b166c	-0.06791386
121	0x3db7d5c4	0.089763194
122	0xbde232c0	-0.11044836
123	0xbb9c009d	-0.0047608153
124	0x3d9efc0e	0.07762919
125	0xbc93f980	-0.018063307
126	0x3d5b23dd	0.053501
127	0xbdcbb6c3	-0.099469684
128	0x3df9d3cb	0.121985994
129	0x3e010169	0.12598194
130	0x3df4668e	0.11933623
131	0x3daf052d	0.08545909
132	0x3d9efb47	0.07762771
133	0xbd64330e	-0.055712752
134	0x3db658a9	0.08903629
135	0xbd9cf96e	-0.076647624
136	0xbd9e7e14	-0.07738891
137	0x3d989ad5	0.07451407
138	0xbd668544	-0.056279436
139	0x3daccdf2	0.084377185
140	0x3d58c35b	0.05292068
141	0x3d82fcd6	0.06395881
142	0xbdd605a3	-0.10450294
143	0x3da7521a	0.081699565
144	0x3dc418e3	0.09575059
145	0xbd9b6bde	-0.075889334
146	0xbd7b41ea	-0.061342157
147	0x3d01f4a4	0.031727448
148	0xbdb6fd6c	-0.08935055
149	0x3d81a113	0.063295506
150	0xbcb22163	-0.021744436
151	0x3d8a5c4f	0.06755888
152	0x3dd3d664	0.10343626
153	0xbe03ad37	-0.12859045
154	0x3ccc0fa3	0.0249098
155	0x3d943a5b	0.07237693
156	0x3c846af6	0.016164284
157	0x3daea5f2	0.08527745
158	0xbde36456	-0.11103122
159	0xba9c8318	-0.0011940924
160	0xbccfd21d	-0.025368745
161	0x3ddb5701	0.10709954
162	0x3db113de	0.086463675
163	0xbd176f86	-0.03697159
164	0xbe03a26e	-0.12854931
165	0xbd5de124	-0.05416979
166	0x3c2995aa	0.010350624
167	0xbd8411e7	-0.06448727
168	0xbce750bd	-0.028236741
169	0x3dd98139	0.106203504
170	0xbda64aa2	-0.08119704
171	0xbbf90c82	-0.007600368
172	0x3dc9c7f0	0.09852588
173	0x3dedf157	0.116182975
174	0xbd7360dd	-0.059418548
175	0xbc99df9b	-0.018783381
176	0x3ddc4d18	0.10756892
177	0xbd05acce	-0.032635503
178	0xbdf82429	-0.12116272
179	0xbd4d7f34	-0.05017014
180	0xbd8d3e7f	-0.06896686
181	0x3dcfba24	0.101429254
182	0xbdd1b920	-0.10240388
183	0x3d7cf540	0.061757326
184	0xbd8c3fc2	-0.06848098
185	0xbd9ffee1	-0.07812286
186	0x3b0df071	0.0021658207
187	0xbde7e220	-0.11322427
188	0xbdd02605	-0.10163502
189	0x3d9ae628	0.0756343
190	0xbd531792	-0.05153615
191	0xbdb1c16a	-0.08679469
192	0xbdcdbc77	-0.100457124
193	0xbdd5ff10	-0.1044904
194	0xbda866e0	-0.08222747
195	0xbdda9953	-0.106737755
196	0xbd856ea9	-0.065152474
197	0xbddfdcc0	-0.109307766
198	0x3e02947f	0.1275196
199	0x3e04c112	0.12964275
200	0xbbdad67b	-0.0066784
201	0x3dd705c3	0.10499146
202	0xbd2bdd87	-0.04195931
203	0xbd51a7f3	-0.05118556
204	0xbe008dcb	-0.1255409
205	0x3df627b2	0.1201929
206	0x3d4efee7	0.050536063
207	0x3d55754d	0.05211382
208	0x3e029edb	0.12755911
209	0xbdd78316	-0.105230495
210	0x3d000ce3	0.03126229
211	0xbda20415	-0.07910935
212	0x3d30ac4d	0.04313307
213	0xbdd1ce05	-0.10244373
214	0xbe03e31d	-0.12879606
215	0x3d2c3704	0.042044654
216	0x3d151912	0.036400862
217	0x3dcf56c0	0.10123968
218	0xbdadd9bd	-0.08488796
219	0x3d19b7ea	0.03752891
220	0x3ca0cce9	0.019628959
221	0xbd700847	-0.058601644
222	0x3db2eb4d	0.08736286
223	0x3de41211	0.111362584
224	0xbd42fb1a	-0.04760275
225	0xbd5f99d0	-0.054590046
226	0xbdb2f94d	-0.087389566
227	0x3d2f25b5	0.04276057
228	0xbdbffc4a	-0.09374292
229	0x3dd0f33b	0.102026425
230	0xbde39f35	-0.11114351
231	0x3d8544c2	0.06507255
232	0x3df16e35	0.117885984
233	0xbdc24326	-0.09485464
234	0xbc8df22f	-0.017327396
235	0x3d6f773a	0.058463313
236	0x3dd26739	0.102735944
237	0x3d9a988c	0.07548627
238	0xbd22560f	-0.039632853
239	0x3cdea94e	0.02718034
240	0xbdc4c845	-0.09608511
241	0xbbc758f2	-0.006083601
242	0xbdc25162	-0.09488179
243	0x3e010ee1	0.12603332
244	0xbd8d045d	-0.06885598
245	0x3dc8e4a4	0.09809235
246	0x3d35630b	0.044283908
247	0x3d026eab	0.031843822
248	0xbe02150d	-0.12703343
249	0xbddab6ab	-0.106793724
250	0xbd610ff3	-0.05494685
251	0x3da63928	0.081163704
252	0x3dc5b6bd	0.09653995
253	0xbcdf43ee	-0.027254071
254	0xbe002423	-0.12513785
255	0xbb9d8a7e	-0.0048077693

decoder.2.bias f4 [576]
0	0xbd8555d5	-0.06510512
1	0x3e0722b1	0.13196827
2	0xbcd9f99f	-0.026608286
3	0xbd24bc51	-0.040218655
4	0xbd3f2133	-0.04666252
5	0x3dc14981	0.09437848
6	0xbdbe0a43	-0.09279301
7	0xbd980138	-0.074221075
8	0xbd02ad85	-0.031903762
9	0x3dffb003	0.124847434
10	0x3d908218	0.070560634
11	0xbdeb0984	-0.11476424
12	0xbdac7a07	-0.08421712
13	0xbdaf2480	-0.08551884
14	0xbd23ff3d	-0.040038336
15	0x3dc6a2d8	0.09699029
16	0x3d6bca8b	0.057566207
17	0xbdad9392	-0.084754124
18	0xbdfd8ae7	-0.12380009
19	0x3ccbe746	0.024890553
20	0x3d8c98f5	0.06865112
21	0xbdeb2a27	-0.11482649
22	0x3d047baf	0.032344516
23	0xbd6fb978	-0.058526486
24	0x3e00d177	0.12579904
25	0x3d8190bb	0.06326433
26	0xbc0bcff9	-0.008533471
27	0xbdb023ea	-0.086006
28	0x3dc06f7a	0.093962625
29	0xbe00e374	-0.12586766
30	0xbdb4f020	-0.08834863
31	0x3de1516e	0.110018596
32	0x3df949be	0.12172268
33	0x3def145a	0.11673804
34	0x3d8247c3	0.06361344
35	0x3d2d847f	0.042362686
36	0xbd9b798d	-0.07591543
37	0xbdcfe473	-0.10150995
38	0xbdcfcbc4	-0.10146287
39	0xbd571cdc	-0.052517757
40	0xbd8d2feb	-0.06893905
41	0x3ce94a90	0.028477937
42	0x3d44edb6	0.04807826
43	0xbd0390fd	-0.032120693
44	0x3dca21ba	0.09869714
45	0x3dbf3e75	0.093380846
46	0x3dba6785	0.09101776
47	0x3c811093	0.015754974
48	0x3df7ec6d	0.121056415
49	0xbd12d766	-0.03584995
50	0x3dcd8d9c	0.100367755
51	0xbd4548a1	-0.048164967
52	0x3d24aacb	0.040201943
53	0x3e00622a	0.12537447
54	0x3cfae826	0.030628275
55	0xbd11d0d3	-0.03559954
56	0xbbf7dd30	-0.0075642094
57	0x3df50a8b	0.119649015
58	0xbcfa672b	-0.030566772
59	0xbde83f48	-0.11340195
60	0x3d7b4d80	0.061353207
61	0x3c68d3b3	0.014210629
62	0x3d517a4c	0.051142022
63	0xbd9889c3	-0.07448151
64	0x3c0aa7ba	0.008462841
65	0xbce0e41c	-0.027452521
66	0xbd6d1459	-0.057880733
67	0xbdd419ad	-0.1035646
68	0x3d9dd786	0.077071235
69	0x3d492231	0.049104873
70	0xbd839984	-0.06425765
71	0x3d053a0c	0.03252606
72	0x3d69f00d	0.057113696
73	0x3d7cdb0b	0.061732333
74	0xbd75ed3b	-0.060040694
75	0xbd656f5e	-0.05601441
76	0xbdf222f4	-0.11823073
77	0x3dd98ee9	0.10622961
78	0xbd082e1e	-0.033247106
79	0x3df155b5	0.117839254
80	0xbd63f3af	-0.055652317
81	0xbd9d0417	-0.07666796
82	0xbcd3b688	-0.025843874
83	0x3d26b3e4	0.0406989
84	0xbc288dac	-0.010287683
85	0xbdaad18f	-0.083407514
86	0x3d4ca6eb	0.049963873
87	0x3c55e489	0.013054975
88	0xbe03692d	-0.1283309
89	0xbdc208a4	-0.09474304
90	0x3d8f91cb	0.0701023
91	0x3c96fce9	0.018431144
92	0xbdae4f2a	-0.08511193
93	0x3d9c705d	0.07638619
94	0xbcffc0fb	-0.03121995
95	0xbd0a4de8	-0.033765703
96	0x3d6149f0	0.055002153
97	0x3d82c8b7	0.063859396
98	0x3d988dcd	0.07448921
99	0x3da13ece	0.07873307
100	0x3c62e02d	0.013847393
101	0x3ddefcfa	0.10888095
102	0x3d43b6c8	0.047781736
103	0x3d2e9e27	0.042631295
104	0x3d4ad8ba	0.049523093
105	0xbdbcb3d7	-0.09213989
106	0xbdcb4375	-0.09924976
107	0xbd36901f	-0.04457104
108	0x3dc998c6	0.09843592
109	0xbd2fcb06	-0.042918228
110	0xbdc2be49	-0.0950895
111	0xbd81d063	-0.06338575
112	0xbc4ce411	-0.012505547
113	0x39ab7b95	0.00032707737
114	0xbe02478d	-0.12722607
115	0x3d917849	0.07103021
116	0x3d3a5131	0.045487586
117	0x3dd7d447	0.105385356
118	0xbdb6c6a2	-0.08924605
119	0xbd0209a4	-0.031747475
120	0xba223a5c	-0.0006188506
121	0xbd5a53e0	-0.053302646
122	0x3dfde637	0.123974256
123	0x3d423cae	0.04742115
124	0x3d8c6377	0.06854909
125	0xbdeb95e7	-0.11503201
126	0x3d3cc3c0	0.04608512
127	0xbc188ea8	-0.009311356
128	0xbd580b21	-0.05274499
129	0xbe030b3c	-0.12797254
130	0xbd462a1b	-0.04838
131	0xbda042f0	-0.07825267
132	0x3d998f14	0.07497993
133	0x3cbda51b	0.023150017
134	0x3ca80e58	0.020514652
135	0x3c0ff509	0.008786448
136	0x3c8d3708	0.017238155
137	0xbdc7802f	-0.09741246
138	0x3df9407d	0.12170503
139	0xbd0d4b2f	-0.03449553
140	0xb99fe209	-0.00030495253
141	0xbd0a1b44	-0.03371741
142	0x3d4575ea	0.048208155
143	0xbdc5ebb3	-0.09664097
144	0xbd61e104	-0.055146232
145	0x3d4f3ad8	0.050593227
146	0x3d3d3742	0.046195276
147	0xbd660fc0	-0.056167364
148	0xbd116b8f	-0.035502966
149	0x3dc3d76d	0.095625736
150	0x3cafeb73	0.021474576
151	0x3dd98056	0.10620181
152	0xbd3333b0	-0.043750465
153	0xbdea5711	-0.11442388
154	0xbe02215c	-0.12708038
155	0x3d44fd45	0.0480931
156	0xbdf0c3c2	-0.11756088
157	0xbd74662e	-0.05966776
158	0xbd441489	-0.047871146
159	0xbd1f30e8	-0.038865
160	0xbd8ae9e7	-0.067828946
161	0x3dc18e4a	0.094509676
162	0x3a88a6ee	0.0010425725
163	0x3cf2fdea	0.029662091
164	0x3d072b38	0.0330002
165	0xbdb53caf	-0.08849465
166	0xbdd2add5	-0.10287062
167	0xbd8fce85	-0.07021812
168	0xbdb2b4ff	-0.087259285
169	0x3d117438	0.035511225
170	0xbdf9c587	-0.121958785
171	0xbd854306	-0.06506924
172	0xbdc8f413	-0.098121785
173	0x3c7b6692	0.015344279
174	0xbd11fb82	-0.035640247
175	0x3de61e19	0.112362094
176	0x3dedab97	0.11604994
177	0x3c5bf85a	0.013425911
178	0x3d6da0a2	0.05801452
179	0xbd2aaf55	-0.041671116
180	0x3df75bcd	0.120780565
181	0x3d98499c	0.07435915
182	0xbc9aa3bf	-0.018876908
183	0x3d895eb7	0.067075185
184	0xbde6fe64	-0.1127899
185	0x3d9c8b7f	0.07643794
186	0xbdae5b6b	-0.0851353
187	0x3d97177c	0.07377526
188	0xbd54c720	-0.051947713
189	0x3dba2a3d	0.090900876
190	0xbdb2b53b	-0.08725973
191	0xbd65c483	-0.05609561
192	0xbd89e231	-0.06732596
193	0xbd7d2e0e	-0.0618115
194	0xbc9bc190	-0.019013196
195	0xbd4796a9	-0.048727665
196	0xbd9623a5	-0.073310174
197	0xbca0374a	-0.019557614
198	0x3cb701e2	0.022339765
199	0xbd3f0115	-0.04663189
200	0x3ccd3c94	0.0250533
201	0xbca84d78	-0.020544752
202	0xbd77c3d0	-0.060489476
203	0x3d03155d	0.032002795
204	0x39035705	0.00012525551
205	0xbdf5fa3a	-0.120106176
206	0x3d36bdfd	0.04461478
207	0xbe016493	-0.12636022
208	0x3dcce2d2	0.100042
209	0xbb315fc9	-0.002706515
210	0xbddba41a	-0.10724659
211	0x3dd12d2e	0.102136955
212	0x3dc8efd1	0.09811366
213	0x3d9d4da7	0.07680827
214	0xbdb41bd5	-0.08794371
215	0x3dde0805	0.10841373
216	0x3df50ac9	0.11964948
217	0x3cba33cf	0.022729782
218	0xbd86d2c9	-0.06583173
219	0x3df55c87	0.11980539
220	0xbcd9ce6d	-0.02658769
221	0x3dd80d12	0.10549368
222	0x3bf19e36	0.0073735965
223	0x3d9fb394	0.07797924
224	0xbced77ae	-0.028987732
225	0x3dfd1436	0.123573706
226	0x3d8379fb	0.0641975
227	0x3de61c00	0.11235809
228	0x3dd796b3	0.105267905
229	0x3d517106	0.05113318
230	0x3d4a10ea	0.049332537
231	0x3da7c070	0.081910014
232	0xbda60dfe	-0.081081375
233	0x3c7d376b	0.015455107
234	0xbdb4dc43	-0.08831074
235	0x3ce4070d	0.027835393
236	0xbdbe12ba	-0.092809156
237	0xbd330f3d	-0.043715704
238	0x3d9d8bb4	0.07692662
239	0xbd9e30d3	-0.07724156
240	0x3da4ad61	0.08040882
241	0x3e013331	0.12617184
242	0xbde3acb3	-0.11116924
243	0xbc3d457e	-0.011552213
244	0x3d9e1e75	0.07720653
245	0x3aba5dd6	0.0014218639
246	0xbd703888	-0.058647662
247	0x3dcb179e	0.09916614
248	0xbdb14b30	-0.08656919
249	0xbd743497	-0.059620466
250	0xbdc4eb1c	-0.09615156
251	0xbd5f4d57	-0.054517116
252	0xbde1989c	-0.11015436
253	0xbd668ba4	-0.056285515
254	0xbcd5e8f4	-0.026112057
255	0xbdcc1fb0	-0.099669814

decoder.5.weight f4 [1, 5, 3, 3]
0	0x3dcc7224	0.09982708
1	0x3d3f13d2	0.04664976
2	0x3dfb09d9	0.12257738
3	0x3e114907	0.14188014
4	0xbd46e41a	-0.04855738
5	0x3ccb51b0	0.024819225
6	0xbd6c51d9	-0.057695244
7	0x3d8f06cb	0.069837175
8	0xbe14c20a	-0.14527145
9	0x3dfad8a0	0.12248349
10	0xbd8a54ed	-0.067544796
11	0x3e5a56d3	0.21322183
12	0x3eb6c22f	0.35695025
13	0xbe160e0d	-0.14653797
14	0x3d15bf55	0.03655942
15	0x3e84ea1c	0.2595986
16	0x3e9ecc43	0.31015214
17	0xbdf2ffdb	-0.11865207
18	0x3ed1d4db	0.40982708
19	0xbec920db	-0.3928288
20	0xbdd1b8e4	-0.10240343
21	0x3ea65cb1	0.32492593
22	0x3e4564d0	0.19276738
23	0xbe8050c3	-0.25061616
24	0xbe224454	-0.15846378
25	0x3f00a715	0.50254947
26	0xbe92d792	-0.28680092
27	0xbe1636e4	-0.14669377
28	0xbc880522	-0.01660401
29	0x3d4c5ccd	0.04989319
30	0xbc642c95	-0.013926645
31	0xbe01c363	-0.1267219
32	0xbd7ef1b4	-0.062242225
33	0xbcea2998	-0.028584287
34	0xbe0a7766	-0.1352211
35	0xbe152e6f	-0.14568494
36	0xbe0ec1c4	-0.13941103
37	0xbd8f4d3d	-0.06997154
38	0xbdce306b	-0.10067829
39	0xbcbe1c78	-0.023206934
40	0x3d745025	0.059646744
41	0xbd0b2dce	-0.03397923
42	0x3c5f4f9d	0.013629821
43	0xbe17ca4b	-0.14823262
44	0xbc0b65a2	-0.008508118

decoder.5.bias f4 [5]
0	0x3d0d14a6	0.03444352
1	0x3dab3e53	0.08361497
2	0x3e85520d	0.26039162
3	0xbdd7e9a0	-0.10542607
4	0xbddbd579	-0.10734076

decoder.7.weight f4 [5, 10, 5, 5]
0	0xbb9a81bd	-0.004715173
1	0x3c9e2c87	0.019308342
2	0xbd0e095c	-0.034676895
3	0xbca852ab	-0.020547232
4	0x3d70d832	0.05879993
5	0x3d48d0ac	0.04902713
6	0xbd72497e	-0.05915212
7	0x3d8f52b5	0.06998197
8	0xbcab7004	-0.020927437
9	0xbd7c1078	-0.061539143
10	0xbceeff04	-0.029174335
11	0x3c5d15bd	0.013493952
12	0xbcc699d2	-0.02424327
13	0x3d209013	0.0391999
14	0xbd32d68a	-0.04366163
15	0xbc9ef23d	-0.019402618
16	0xbc593f17	-0.013259671
17	0xbc4a9a5d	-0.012365905
18	0x3c9730e1	0.018455924
19	0x3cc9e021	0.024643006
20	0xbb999f84	-0.004688205
21	0x3cd15474	0.025552966
22	0xbd8352a3	-0.06412246
23	0xbd26e591	-0.040746275
24	0x3bc08cfb	0.005876181
25	0x3d167626	0.03673377
26	0xbc1ecc62	-0.009692283
27	0x3c820674	0.015872218
28	0x3c37a46f	0.011208638
29	0x3d41373d	0.04717182
30	0xbd67af30	-0.056563556
31	0xbce4d5ca	-0.027933974
32	0xbd3c49dd	-0.04596888
33	0xbc98a37a	-0.01863264
34	0xbd53cca4	-0.051708832
35	0x3cc8b76b	0.024501523
36	0x3c2083ad	0.009797019
37	0x3cfc59cc	0.030804537
38	0xbd524417	-0.051334467
39	0xbc1d6692	-0.009606974
40	0x3cc3dff1	0.023910495
41	0x3d185ef5	0.037199933
42	0x3c56fbe1	0.013121576
43	0x3d425547	0.047444608
44	0x3be0b846	0.0068579046
45	0x3b8fe001	0.004390717
46	0x3d187188	0.037217647
47	0xbd3a6194	-0.045503214
48	0xbc6258c1	-0.013815106
49	0xbc8d7adb	-0.017270496
50	0xbcf577ec	-0.02996441
51	0x3ca37245	0.019951949
52	0xbcf6e21b	-0.030137112
53	0x3b873950	0.004126705
54	0x3d2e88ad	0.042610813
55	0x3d0a4f9f	0.03376734
56	0x3d316180	0.043305874
57	0x3ce40813	0.027835881
58	0xbd5d4018	-0.054016203
59	0x3d600a1c	0.05469714
60	0x3ce17c43	0.027525073
61	0xbd8fc701	-0.07020379
62	0xbc00e0ec	-0.007866126
63	0xbcfbd2d7	-0.030740185
64	0x3ce1a127	0.027542664
65	0xbd497f54	-0.049193695
66	0xbce84496	-0.028353017
67	0xbd5d7b81	-0.05407286
68	0x3d57066a	0.05249635
69	0xbd0acd53	-0.03388722
70	0xb9ec3b38	-0.0004505755
71	0xbd111e08	-0.03542903
72	0xbc84eb65	-0.016225526
73	0xbd360025	-0.04443373
74	0x3d4828f5	0.048867185
75	0x3ae77649	0.0017659153
76	0xbd59e658	-0.05319819
77	0x3cac3658	0.021022007
78	0x3d5eaf0f	0.054366168
79	0x3ba1dd19	0.004939687
80	0x3c4a234a	0.012337515
81	0xbc7d8cd3	-0.01547547
82	0x3d4c7015	0.049911577
83	0x3d6cac2f	0.057781395
84	0x3c884af9	0.016637312
85	0xbd56c6d6	-0.05243572
86	0xbd3dd86f	-0.046348985
87	0xbc616279	-0.013756388
88	0xbc20b70d	-0.009809268
89	0x3cea54d6	0.028604906
90	0xbd517237	-0.051134314
91	0xbd6d8a30	-0.057993114
92	0x3d6672f2	0.056261964
93	0xbd4f8b94	-0.05067022
94	0x3c4e4742	0.012590231
95	0x3d33892c	0.04383199
96	0xbd849c5b	-0.06475135
97	0xbc6ea37e	-0.014565347
98	0x3a28a030	0.0006432561
99	0xbc98a985	-0.01863552
100	0xbcb97fc1	-0.022643926
101	0x3c4b900d	0.012424481
102	0xbd869826	-0.06571989
103	0x3d8070d9	0.06271524
104	0xbd408cfb	-0.04700945
105	0xb9b1a60a	-0.0003388378
106	0x3d744ccf	0.059643563
107	0xbcaf74d0	-0.021418005
108	0xbc69b9b9	-0.014265471
109	0x3b3a00bf	0.0028381792
110	0xbd5273b6	-0.05137988
111	0xbd72c7e8	-0.059272677
112	0xbd194cfc	-0.037426934
113	0xbd76733e	-0.060168497
114	0x3ccf7f49	0.025329249
115	0x3ad427a9	0.0016186136
116	0xbd46ba37	-0.048517432
117	0x3d7b5c40	0.061367273
118	0x3c93ebb6	0.018056732
119	0x3d42baf7	0.047541585
120	0x3ce0f17a	0.027458895
121	0x3ba13931	0.004920148
122	0x3cfb7100	0.030693531
123	0x3c8ec03c	0.017425649
124	0xbcef31c2	-0.029198531
125	0x3bdf2bd4	0.0068106446
126	0xbd7c5908	-0.061608344
127	0x3c9562ba	0.018235553
128	0xbc28e4a1	-0.010308416
129	0x3c8f3a0c	0.017483734
130	0xbd08eb94	-0.03342779
131	0xbd41cb4c	-0.04731302
132	0x3bd799ed	0.0065796287
133	0x3c4a3fb3	0.012344289
134	0x3c39e6c7	0.0113465255
135	0x3d6931d7	0.056932297
136	0xbd1242cc	-0.035708234
137	0xbc75d7dc	-0.015005078
138	0xbc8e15d3	-0.017344391
139	0xbd79f2df	-0.061022636
140	0x3b8f8333	0.004379654
141	0x3b2a4ccf	0.0025985723
142	0xbcc17bc1	-0.02361858
143	0xbd0f920e	-0.035051398
144	0xbcec7121	-0.028862538
145	0x3d310211	0.04321486
146	0x3cdac43b	0.026704898
147	0x3c35def1	0.011100517
148	0x3c517940	0.012785256
149	0xbcda572e	-0.026652899
150	0xbb596cbf	-0.003317639
151	0xbd247870	-0.04015392
152	0xbd5ff200	-0.05467415
153	0xbd7bb023	-0.061447274
154	0x3c00de3e	0.007865487
155	0x3d39ebbe	0.045390837
156	0x3bf8b6b1	0.007590138
157	0x3d4e8640	0.050421
158	0x3d813906	0.063097045
159	0xbd1ef8e1	-0.03881157
160	0x3d72517a	0.059159733
161	0xbc58452b	-0.013200085
162	0xbc7103ae	-0.01471035
163	0x3d8984d0	0.06714785
164	0x3ad03e8d	0.0015887782
165	0xbd893277	-0.066990785
166	0xbc84580a	-0.016155262
167	0xbcdb7fdd	-0.026794368
168	0xbc06aac8	-0.008219428
169	0xbd253097	-0.040329542
170	0x3d09f701	0.033682827
171	0xbd6662ec	-0.056246683
172	0x3c0fccc1	0.0087768445
173	0xbd0d2b6b	-0.034465235
174	0x3c232068	0.009956457
175	0x3cf659b5	0.030072073
176	0x3d6b8c18	0.05750665
177	0xbd816c05	-0.06319431
178	0xbd78094b	-0.060555737
179	0x3c7d78da	0.015470708
180	0xbd37db34	-0.044886783
181	0x3d2057c1	0.03914619
182	0xbd786571	-0.060643617
183	0xbd26fc40	-0.040767908
184	0x3d33786b	0.04381601
185	0x3d75df52	0.060027428
186	0xbd76cd35	-0.060254294
187	0x3ce8b8eb	0.028408488
188	0xbc68a604	-0.014199737
189	0xbd1905a6	-0.037358902
190	0xbce414ff	-0.027842043
191	0xbcd92f97	-0.02651195
192	0x3d268e17	0.04066285
193	0xbc375828	-0.011190452
194	0x3cb52077	0.022110207
195	0xbd15acbe	-0.036541693
196	0xbca99327	-0.02070005
197	0xbd5fb676	-0.054617368
198	0x3d1485d1	0.03626043
199	0xbd4f23b3	-0.050571155
200	0x3c51c402	0.01280308
201	0x3bb6034d	0.0055545927
202	0x3d920520	0.07129884
203	0xbd075e4e	-0.03304892
204	0xbc381de3	-0.011237594
205	0xbd186bfb	-0.037212353
206	0x3caf003f	0.021362422
207	0xbc13ad02	-0.009013416
208	0xbca4390e	-0.020046737
209	0xbc9a194d	-0.018810892
210	0xbd11003d	-0.035400618
211	0xbae3a22d	-0.0017367058
212	0xbd5b5b12	-0.05355365
213	0x3d961c62	0.07329632
214	0xbd0b0ce6	-0.033947848
215	0xbcdf9345	-0.027291903
216	0xbd1342ca	-0.035952367
217	0x3cb60292	0.022218022
218	0x3d14c22e	0.036317997
219	0xbcfc81cf	-0.030823616
220	0x3d2e1ba0	0.042506814
221	0x3d1a619b	0.03769074
222	0x3d0457c2	0.032310255
223	0xbc62250d	-0.013802779
224	0xbc1bbbc4	-0.009505216
225	0x3cae4be9	0.021276431
226	0xbb8f8dbc	-0.0043809097
227	0x3ccdcf8b	0.025123378
228	0xbcecc394	-0.028901853
229	0x3d65734d	0.056018163
230	0xbbac75be	-0.0052630594
231	0xbd24d0fe	-0.040238373
232	0x3d53b926	0.051690243
233	0xbc4ad216	-0.01237919
234	0xb9b35628	-0.00034205732
235	0xbd2dfef4	-0.04247947
236	0xbc6babe7	-0.014384246
237	0x3c82eaa8	0.015981033
238	0x3d1c798b	0.03820185
239	0x3ca94ae4	0.020665593
240	0x3d2bbe6e	0.041929655
241	0xbd8afccc	-0.067864984
242	0x3d33ecc3	0.043926965
243	0xbcfc2fdd	-0.030784542
244	0x3cda4616	0.026644748
245	0xbd32caad	-0.043650318
246	0xbc834831	-0.016025634
247	0xbce3fd7c	-0.027830832
248	0x3d2f601e	0.042816274
249	0xbbe7c2f3	-0.0070728003
250	0x3d2d6127	0.04232898
251	0xbd362e56	-0.044477783
252	0x3d679906	0.05654242
253	0xbbd20add	-0.0064099864
254	0xbc834a84	-0.016026743
255	0x3d8201bc	0.06347987

decoder.7.bias f4 [10]
0	0x3db6738c	0.089087576
1	0x3cac44ef	0.021028964
2	0x3df35dff	0.11883163
3	0x3d83eeba	0.06442018
4	0x3d39495e	0.045235984
5	0x3d6c5771	0.057700578
6	0x3daa725a	0.08322592
7	0xbd2d3d38	-0.04229471
8	0x3da9fc89	0.083001204
9	0x3da19107	0.0788899

decoder.9.weight f4 [1, 10, 3, 3]
0	0xbd0d18ee	-0.034447603
1	0x3de09eea	0.109678105
2	0xbda03d28	-0.07824165
3	0xbddce638	-0.10786098
4	0x3d933ab0	0.07188928
5	0x3d8a4557	0.06751507
6	0xba168aff	-0.0005742758
7	0xbdb7b466	-0.08969955
8	0x3e110770	0.14162993
9	0x3dc9bbac	0.09850249
10	0xbdf0e6b1	-0.11762751
11	0x3dd38605	0.103282966
12	0xbd7e0316	-0.06201466
13	0xbce3d8f3	-0.02781341
14	0xbd086703	-0.033301365
15	0xbe1df92b	-0.15427081
16	0x3d426643	0.047460806
17	0x3d94874a	0.07252367
18	0x3da887cb	0.082290255
19	0x3e0f000d	0.13964863
20	0xbdb648df	-0.08900618
21	0xbe81ed18	-0.253762
22	0x3e2e5533	0.17024688
23	0x3e0f9af4	0.14023954
24	0xbe7536bb	-0.2394666
25	0xbde64b99	-0.11244888
26	0x3e849689	0.258961
27	0x3e67019b	0.22559206
28	0xbcae89f1	-0.02130601
29	0xbdd223d1	-0.10260738
30	0x3e385812	0.18002346
31	0xbd31aaf6	-0.04337593
32	0xbe82dd35	-0.25559393
33	0xbc6a96d3	-0.014318186
34	0x3e6f4ab5	0.23368342
35	0xbe482d1c	-0.19548458
36	0x3e0a2fca	0.13494793
37	0xbe0d392a	-0.13791338
38	0xbdc86932	-0.097856894
39	0xbda80706	-0.082044646
40	0x3d464028	0.048401028
41	0xbe287c45	-0.16453655
42	0xbdf97e07	-0.12182241
43	0x3e08b3c9	0.13349833
44	0xbd96437a	-0.07337089
45	0xbdabdb69	-0.083914585
46	0x3e46ebed	0.19425936
47	0x3da7b8d2	0.081895486
48	0xbe1e5808	-0.15463269
49	0xbe06c983	-0.13162808
50	0x3e2a804c	0.16650504
51	0x3d0d9f8a	0.034575976
52	0xbe670efc	-0.2256431
53	0x3d83a967	0.06428795
54	0x3d0969e2	0.033548243
55	0x3dd2809c	0.102784365
56	0x3d0ac676	0.033880673
57	0xbe18a5c4	-0.14906985
58	0xbe23c856	-0.15994391
59	0x3e3d36db	0.18477957
60	0x3d076d16	0.033063017
61	0xbe0732ff	-0.13203047
62	0xbe242a25	-0.16031702
63	0x3bd97989	0.0066368026
64	0xbd573b0e	-0.052546553
65	0x3d85939f	0.06522297
66	0xbc9e8a61	-0.019353094
67	0x3cace4df	0.021105228
68	0xbdcf2fa5	-0.10116509
69	0x3cfa01f2	0.030518506
70	0x3d5bbf72	0.053649373
71	0x3d359e91	0.044340674
72	0xbdddd683	-0.108319305
73	0x3e8c342c	0.27383554
74	0xbdecd21e	-0.11563514
75	0xbe692fe5	-0.22772177
76	0x3dbe4cdc	0.092920035
77	0x3e55472d	0.20827933
78	0xbdb57ed2	-0.0886208
79	0xbe76a28d	-0.24085446
80	0x3d8793f5	0.066200174
81	0x3db10ae7	0.086446576
82	0x3e0ced59	0.13762416
83	0xbde06561	-0.109568365
84	0xbd9c5ca5	-0.07634858
85	0x3e8ae6e5	0.27129284
86	0xbe0e1211	-0.1387408
87	0xbe59bb7f	-0.2126293
88	0x3c94ef32	0.018180463
89	0x3e2b35c0	0.16719723
