prova_net.pth (torch, 243657 bytes, 10 tensors)

conv1.weight f4 [6, 1, 3, 3]
00000000: 826a 45be 340d a2bd f1ef 023f fd93 e23e
00000010: 123f 293f ac96 c23e d9a5 8e3e 2037 bb3e
00000020: 1a66 15be dafe 9b3c 83a3 fc3d 8c1a e939
00000030: 5c4f 7abe e0ca ab3e d676 a73e 06f5 6b3d
00000040: 2a8a 953e 9d40 babe 0861 983e db05 2f3f
00000050: c79e 0b3f 1d81 373d 6e9e 3b3f 29ba 973f
00000060: 36a7 9dbe 94c2 d13d bfd9 613f 5411 043f
00000070: bded d93d 6267 aa3e 63ae 693c 4159 823e
00000080: c774 3e3e bdcf b5be 6752 d4be f32d c4be
00000090: 50cd 99be 62fe d73d 01f6 5bbd 5851 c73b
000000a0: d283 a6be 6550 0fbd b247 cbbc 9cfb 803e
000000b0: aa0e 9fbe 44a9 523f 5f06 073f c88f 073e
000000c0: 4103 de3e bdfd 773f 12aa 1f3f 0a82 143f
000000d0: 4910 383f 2821 233f
-0.19278911 -0.079126745 0.5114737 0.4425353 0.6611186 0.3800558 0.27860907 0.36565495
-0.1458973 0.019042421 0.12335875 0.00044461002 -0.24444336 0.3355322 0.32707852 0.05760672
0.29206973 -0.3637742 0.2976153 0.6836831 0.5453915 0.044800866 0.7328862 1.1853687
-0.30791634 0.10242191 0.8822288 0.5158894 0.10641048 0.33282 0.014262768 0.2545872
0.18599235 -0.35510054 -0.41469118 -0.38316306 -0.30039454 0.105465665 -0.053701404 0.006082695
-0.32522446 -0.03498878 -0.02481446 0.25191963 -0.31065875 0.8228953 0.52744097 0.13238442
0.43361858 0.9687155 0.6236888 0.58010924 0.7189985 0.6372247

conv1.bias f4 [6]
00000000: cbe2 91bd 339a d33e c6c4 cfbb a7c4 a23e
00000010: 52a6 70be 8f4a 8dbb
-0.071233355 0.41328582 -0.006340596 0.3179066 -0.23500946 -0.0043118666

conv2.weight f4 [16, 6, 3, 3]
00000000: 2ab6 a3bd 5646 dbbd f0cb ad3d 4087 773e
00000010: 5ad6 123e d59e ff3d 5ef2 20bd 2b32 d83d
00000020: 6243 933d 6590 b8bd a6c1 1a3d 3dfa bf3d
00000030: 8ea1 0b3e c7d4 63bd 05be 85bd 1ede a13d
00000040: 6cb3 9b3d b58e bdbd 1302 8ebe ee6c 19bd
00000050: f658 833b 18b1 1b3e b04b a33d 1766 743e
00000060: 9cd2 053d a2e5 c1bc e676 18be a896 2ebd
00000070: ebad aabd 9c0e edbd 52eb b9bd ba30 913d
00000080: a163 cc3d 6751 5c3e 6b99 57bc 6526 c23c
00000090: 7f9c b2bd cf71 63bd 6ffb 0fbd 0de9 f6bc
000000a0: 0e93 d63d 5e6f 9f3c 3aad 713b 700c 24bd
000000b0: e198 e93d 5a53 5dbe 6dc3 99bd 5118 f4bd
000000c0: 0c75 673e 3ccd 3a3e 4e0b c83d c0a9 56bd
000000d0: 715f 2abe 92af 46be ad23 7f3c a675 4d3b
000000e0: ed0e 8a3d 8b24 963e 0137 ba3a 0054 ad3b
000000f0: db7a 27be 03b6 60be a620 7f3c 7cac 413d
00000100: 4ab9 e23d 4122 ebbd 930d 863c dd11 a93d
00000110: b37e 6d3d 14da e13d 0112 c93d 0644 e2bd
00000120: 55a1 6cbd 1fcd 4ebd 0028 a8bd f974 3b3e
00000130: 94ec 723e 8ad1 5b3d af7d 33be 364c 21be
00000140: 6dee 45be 9b29 adbd 405d adbd c8f9 a6bc
00000150: a8c2 dc3d d30f 173e 4afa 4b3e 8e7d f03d
00000160: be85 7a3c 7c6c 053d 8503 b03c 5cfa ddbd
00000170: ef24 86bd c81b 013e 26db d63c f1de 7bbd
00000180: 3491 813d 60b4 b63d 446a e53d 2954 e7bd
00000190: 39a3 41be 8a23 a93d f8a5 663e 0cb4 803e
000001a0: 42dc 933e 70c6 4cbe cbab 88be 4152 d6bc
000001b0: 87ec b23d 5513 f3bb ae50 fdbc bcfc abbd
000001c0: 7b3f dabc f12a 5d3e 0691 12be 1040 a43d
000001d0: c3e4 a23d 74ca f9bc c0ad a2bd 4434 0cbc
000001e0: e30d c1bc 432f e6bd 1f58 4bbc e03f 6a3d
000001f0: 7010 00be e67d d63d 5244 10bb 1751 d6bd
00000200: 499e af3d 0e97 e2bd 6326 6abd 8d3c ac3e
00000210: 2e5e aabe 9b86 093e 2ad7 34bc b123 b7bc
00000220: ff59 e13c feed 26be a573 f13b dfb8 1ebe
00000230: 5bf7 ab3d 27d5 b53d ce8c 0c3d dd70 043d
00000240: 2d71 a4bd 3ade cbbd b83b f9bc 85f8 18bd
00000250: b09d b73d 49aa fcbd 3339 05be d51f af3d
00000260: 8232 dbbd 09c2 093e eb0f 67be 2329 c0bd
00000270: 0cb6 aabc e3da 8bbe b23e 7c3d 7326 94be
00000280: 7328 563d 66ed 653e cc07 98bd 1390 0c3e
00000290: 0287 afbc 5050 33be 9e2b a0bd f6d4 a7bd
000002a0: ce28 90bd 5edf d9bd 4306 abbc 7c9f 43bd
000002b0: b4ec a9bd c405 59bd cbb8 13be 899f 20be
000002c0: d9a8 b63d 54fe dfbd e3a2 00bc 8b6f eebd
000002d0: 3c51 093e b454 c53e 102d febb b942 2abe
000002e0: fd81 bc3d 0e06 8f3e 54a0 98be 8fab bd3c
000002f0: 6603 8b3e bca1 e3bd f721 9bbd da89 06be
00000300: 47aa 62bc f45c 3ebe 8341 79bb 4723 a33c
00000310: b36a 24be 59fe 9d3d 082f da3d f6ff 05bd
00000320: d973 3b3d fa04 b93d 3721 c73d 528e 86bd
00000330: df1b 1f3d df66 27bc 8e22 72ba 5f9a 89bd
00000340: 8b14 823e d8b2 563e fbc7 06be 1f61 b93d
00000350: 58da 173e 9f44 ddbe 0140 adbe 3bfb 103e
00000360: 81d5 193e 9aac fc3d f2f1 bd3e fe5f 88be
00000370: 8e6c 8a3c a066 4b3e c090 7ebe 6bfd 18be
00000380: b2f6 c2bd 0751 27bd 8ab2 c5bc 2b49 2bbd
00000390: 1667 3e3d e566 a6bc 04b5 983d 0020 8dbd
000003a0: 324e 60bc 432c 41be f711 913e e1a3 2e3e
000003b0: 0df4 ae3e 1a88 033e aee7 ce3d 9220 12be
000003c0: 0a46 f2be c37f cfbe 5056 f8be e347 3fbd
000003d0: bcd4 103e 6f62 883d 37ba 9a3c 3144 4d3e
000003e0: 6762 303e 27e3 70be c41e 89bc b67f a3bd
000003f0: 1717 e3bd 5892 a7bd 922d 88bd 9d0f ebbd
-0.079937294 -0.10706775 0.084861636 0.24172688 0.14339581 0.12481467 -0.03929364 0.10556444
0.071905866 -0.09011916 0.037782334 0.09373901 0.13635847 -0.055622842 -0.06530384 0.079036936
0.076025814 -0.09255735 -0.27735958 -0.0374574 0.0040084077 0.15204275 0.079734206 0.23867069
0.032671556 -0.023669068 -0.14889106 -0.042624146 -0.083339535 -0.11575052 -0.09078087 0.07089372
0.0997994 0.21515428 -0.013159136 0.023699949 -0.087212555 -0.05552846 -0.035151895 -0.030140424
0.10477267 0.019462284 0.0036876933 -0.040050924 0.114061125 -0.21613827 -0.07507978 -0.119187005
0.22603244 0.18242353 0.09767781 -0.05240798 -0.1663797 -0.19402912 0.015572471 0.0031350642
0.06741128 0.29324755 0.0014207066 0.0052895546 -0.1635546 -0.21944432 0.015571749 0.047283635
0.11070497 -0.11481143 0.016363895 0.0825536 0.057982158 0.11027923 0.09817887 -0.11048131
-0.057771046 -0.050488587 -0.082107544 0.1830634 0.2372306 0.05366663 -0.17528413 -0.15751728
-0.19329233 -0.08455201 -0.08465052 -0.020382777 0.10779315 0.1475213 0.19919696 0.11742698
0.015290676 0.032574162 0.021486053 -0.10838768 -0.06550013 0.12608254 0.026227545 -0.06149191
0.063265234 0.089211226 0.11201909 -0.11295349 -0.18909921 0.08258732 0.2252425 0.25137365
0.2887898 -0.19997573 -0.26693568 -0.026162269 0.0873652 -0.007418076 -0.03092226 -0.08397815
-0.026641598 0.21598412 -0.14313135 0.080200315 0.07953789 -0.030492045 -0.079432964 -0.008557383
-0.023566192 -0.11239483 -0.012411146 0.057189822 -0.1250627 0.10473232 -0.0022013378 -0.104646854
0.085751124 -0.11063968 -0.057165515 0.33639947 -0.33274978 0.13430254 -0.011037627 -0.022355886
0.027508734 -0.16301724 0.007368522 -0.1550021 0.08396789 0.08878546 0.03431397 0.032334197
-0.08029399 -0.09954496 -0.030423984 -0.03734638 0.089656234 -0.12337167 -0.13010101 0.08550993
-0.10702993 0.13452925 -0.22564666 -0.09382846 -0.02083876 -0.27315435 0.06158323 -0.28935584
0.05228467 0.22453842 -0.07423362 0.13726835 -0.021426681 -0.17511106 -0.07820819 -0.08194916
-0.07039033 -0.10638307 -0.02087701 -0.047759518 -0.08297101 -0.052984014 -0.14425962 -0.15685858
0.08918924 -0.10937181 -0.007851335 -0.11642369 0.13409895 0.38541186 -0.0077568367 -0.16627015
0.09204481 0.27934307 -0.2980982 0.023153095 0.2715103 -0.11114833 -0.07574838 -0.13138524
-0.013834543 -0.18590146 -0.0038033433 0.019914282 -0.16056328 0.077145286 0.10653502 -0.032714806
0.045764778 0.09034152 0.09723132 -0.06570114 0.03884494 -0.0102173975 -0.00092367164 -0.06718897
0.25406298 0.20966661 -0.13162224 0.090517275 0.14829385 -0.43216416 -0.33837894 0.14158337
0.15022852 0.12337609 0.37098652 -0.26635736 0.016897466 0.19863367 -0.24859905 -0.14940421
-0.0951971 -0.040848758 -0.024132986 -0.041817825 0.04648503 -0.020312736 0.07456401 -0.06890869
-0.013690518 -0.18864541 0.2833402 0.17054702 0.3417057 0.12844887 0.10102783 -0.14270237
-0.4731906 -0.40527162 -0.4850335 -0.046699416 0.14143652 0.066594 0.018887622 0.20045544
0.17225038 -0.23524152 -0.016738303 -0.07983343 -0.110883884 -0.0818221 -0.06649317 -0.11477587

conv2.bias f4 [16]
00000000: eefe 45bd 8fa9 39be f446 e53d 458a 26be
00000010: 6983 173d 80fe 073c fd1a 03be 1fb1 80be
00000020: d02b 9cbe 9ba1 c53c 1a6b 37bd 8a86 a53d
00000030: 89fd 93be 043c 1dbe 7d57 a3be 340c 16bd
-0.048338823 -0.18131088 0.11195174 -0.16263683 0.036990557 0.008300424 -0.12803264 -0.25135133
-0.30502176 0.024124911 -0.044779874 0.08082302 -0.2890437 -0.15354925 -0.31902686 -0.03663273

fc1.weight f4 [120, 400]
00000000: abc1 8abb 299c 883c e76b 06bd 32b4 32bd
00000010: e0b3 cbbc 4d23 263d 5830 ffbb 82d7 80bb
00000020: fd9d 483d 11a8 cc3c 8d0b f9bc a686 633d
00000030: fade 243d 90f5 f93b 17b2 42bd 6d98 1d3d
00000040: 1b9f 63ba 265a 1c3d dee3 0cbd ebd7 d33c
00000050: b818 f93b 8d7f febc 8994 26bd 0180 f2bb
00000060: c367 75bc b318 18bd 9f04 b63c ede5 633c
00000070: 7f97 373c 7e62 32bc 6e2c d7bb b10b a13d
00000080: f3cc 683d d77b c33c 35da 973c 2a63 be3c
00000090: 41d3 e73c d4d4 56bd 5d25 273d add6 91bc
000000a0: 43c9 a43c adb4 b83d e754 b03d 393c b93c
000000b0: 6b87 a03a 53b0 75bd dffb 73bd 1413 c93c
000000c0: 909b c5bc f0b5 bbbb 8cdb dbbc 3c4e 753b
000000d0: 9109 47bd 7e12 283c 91dd 4abd 48f9 e0bc
000000e0: f587 5c3b 8a29 f9bc b8e5 bfbc 2341 8bbc
000000f0: 8e10 d9bc 0399 4f3d 8804 d63c 8f5b e7bc
00000100: 38fd f0bc 02f2 f13c 3c77 673c ea04 2abd
00000110: 33c6 473d c7f7 06bc 2042 933c 23c1 283d
00000120: 863f b93a 59bb 523d 3166 3e3d 7d98 2fbd
00000130: 674a 04bd b1f9 09bd 2637 83bd 3bd8 693c
00000140: 3002 04bd a7be 823d 6a23 a9bb 51c7 733d
00000150: e995 1bbd b86d 5dbd 9aa4 5fbc 5e06 b0bd
00000160: 43cc c9bd 5d04 15bc ca75 0dbd 21d1 2e3d
00000170: 5a57 e83c 1efa 02bb 7191 b03c cb66 91bd
00000180: d10e fdbd 8081 bfbc 3e69 6bbd d197 42bd
00000190: 65d9 0cbd c67b 9f3c 1bce 88bc 9563 bcbc
000001a0: 1052 fc3c 819f 123d 2223 b33d 8b40 5d3d
000001b0: 3ea4 433d 14db 043d 04a9 b3bc c4a8 9e3d
000001c0: 0f13 e2bb 6d63 443d 04b0 9f3d ff23 373d
000001d0: d679 d03d e728 bc3d 1ecd ac3c 33ad 8fbc
000001e0: d3d0 29bd 86f6 07bc c17f 71bc 8afc ddbb
000001f0: e67c e9bc 70d6 f9bb 3d56 883c 51ad 843c
00000200: c2f0 1a3d 64de 19bd 2158 25bb 84c2 08bd
00000210: cf12 93bc 84f3 0f3d 8305 f03c b6c0 eebc
00000220: 025d 1cbd 758c a9bc f4f8 2e3c c95f 953c
00000230: 6e35 873c c0a5 2d3d 53e1 a3bc c444 60bb
00000240: 0c48 473c 17d7 1cbd e29d d5bc 5b5c 5bbb
00000250: 3277 10bd e390 913c 681d b73c 86c6 9b3c
00000260: 9974 26bd 1283 fdbc 9b7a 17bd 16d0 013d
00000270: 51e9 723d 897a e7bb 63ab d43c af16 c63c
00000280: 515e 31bd 6799 9b3c 12a1 c0bc d4b1 ffbc
00000290: d4ec 07bc e140 4fbd fb1e 4dbd 74c9 81bc
000002a0: 3419 c63c a2b8 f8bc cb0f 343d 5087 853d
000002b0: 29e7 6c3b ea28 6abb c3a8 1fbd a545 343d
000002c0: 685c ab3d 7ace 103d 415f 80bd b4ec 16bd
000002d0: 9e61 5e3d dd08 853d 92f0 95bd 47ce f83b
000002e0: d2dd a23c 1a9c c3bc aeb4 d2bd 45cd b0bd
000002f0: 7e25 febc 2863 c4bc 7c15 dabc 9cd6 573c
00000300: 3c61 3c3d efa3 443d 0a06 59bc 8203 1abc
00000310: bc8e 51bd f9bf 9ebc 850b 273d e763 f23c
00000320: c50a 7fbd f3bb edbb afec 81bd fdfc a63c
00000330: 87b4 223c 4362 55bc 1be6 443c 8346 82bd
00000340: 4d19 febb 99b4 143d 75a1 c53b c4c0 103c
00000350: fc6f 2e3d 4e68 5ebc 70a9 173d a21f 9abc
00000360: da56 85ba 93be 17bd 080e 983c 3dc0 0b3d
00000370: 756f 43bd 9077 57bd 51bd 543c e798 e4bb
00000380: 32bb fdbc 5c8d 31bd 3986 a8bc bc38 de3a
00000390: 9638 433d ef38 fa3c dacd e03c 3f00 203c
000003a0: 4c9a ebbb ee06 2a3d 76e9 41bc 132c a93c
000003b0: f8fa c63c fd0c 323d c809 5d3c 4faa 433d
000003c0: 6c0c 3bbd 0331 a33c fb24 1ebb 1228 7c3d
000003d0: 5126 9d3c 5fb5 bf3b 0bd9 12bc f4cb 343d
000003e0: 93a1 3ebd f3e3 403d 438d c33c ec8f 28bd
000003f0: edf9 3b3d 7706 283d 0ca0 00bd 7540 433d
-0.004234513 0.016676025 -0.032817747 -0.04362888 -0.024866045 0.04056101 -0.0077877454 -0.0039319405
0.048978794 0.024982484 -0.030401016 0.055548333 0.04025171 0.0076281503 -0.04753312 0.038475443
-0.00086830714 0.03817191 -0.034397 0.025859794 0.0076018237 -0.03106668 -0.040668998 -0.007400513
-0.014978352 -0.03713293 0.022219 0.013909799 0.011205553 -0.01088774 -0.0065665757 0.07863558
0.05683608 0.023862762 0.018536666 0.023240644 0.028298976 -0.052449062 0.040807117 -0.01780256
0.0201155 0.09018836 0.08609944 0.022611724 0.0012247389 -0.05998261 -0.059566375 0.02454523
-0.02412203 -0.0057284757 -0.026838087 0.0037430665 -0.048593108 0.010258315 -0.04952771 -0.027462617
0.0033650373 -0.030415315 -0.023424968 -0.016998833 -0.026497152 0.050683033 0.026125208 -0.0282419
-0.02941762 0.029534344 0.014127549 -0.041508593 0.048773002 -0.008237786 0.017975867 0.041199815
0.0014133311 0.0514482 0.046484176 -0.042870034 -0.032297518 -0.03368539 -0.06407003 0.014272745
-0.03222865 0.0638402 -0.0051616924 0.059516255 -0.037984762 -0.054059714 -0.013650084 -0.085949644
-0.09853413 -0.009095279 -0.03453616 0.04267991 0.028361965 -0.0019985507 0.021553727 -0.07099684
-0.12356342 -0.02337718 -0.057473414 -0.047508065 -0.03438701 0.0194682 -0.016699841 -0.022996703
0.03080085 0.035796646 0.087469354 0.05401663 0.047764055 0.03243549 -0.021931179 0.07747033
-0.0068992446 0.047946382 0.07797244 0.044712063 0.10179488 0.09187489 0.021093901 -0.017538643
-0.041458916 -0.008298522 -0.014739932 -0.00677449 -0.028501939 -0.00762444 0.016642684 0.016195925
0.03782726 -0.037565604 -0.002522953 -0.03338863 -0.017953305 0.035144344 0.029299503 -0.029144626
-0.038174637 -0.020696858 0.010679472 0.01823415 0.01650497 0.0423944 -0.020004904 -0.0034220675
0.012163173 -0.038291063 -0.026076261 -0.0033471796 -0.035269924 0.017769283 0.02235289 0.019015562
-0.04063854 -0.030946288 -0.03698216 0.031692587 0.05930454 -0.007064168 0.02596063 0.024180738
-0.043302838 0.018994046 -0.023514304 -0.031212725 -0.00829621 -0.050598983 -0.050078373 -0.01584313
0.02418194 -0.030361477 0.043960374 0.065199494 0.0036148524 -0.0035729953 -0.038979303 0.04401173
0.083672345 0.03535316 -0.06268168 -0.03684683 0.054292314 0.06495831 -0.07321276 0.0075929496
0.019881163 -0.023878146 -0.10288368 -0.08632902 -0.031023737 -0.023973063 -0.026621573 0.013173725
0.045991167 0.0480079 -0.013246069 -0.00940025 -0.051161513 -0.01937865 0.04078247 0.029588653
-0.06226613 -0.0072550713 -0.06343972 0.020384306 0.009930736 -0.013023916 0.012017752 -0.06361105
-0.007754481 0.036305044 0.00603121 0.008835021 0.042587265 -0.013574673 0.037026823 -0.018813912
-0.0010172979 -0.03704698 0.018561378 0.03411888 -0.047713716 -0.052604258 0.01298459 -0.006976235
-0.03097305 -0.0433477 -0.020571815 0.0016954164 0.047661386 0.030544726 0.027441908 0.009765684
-0.0071900245 0.041510515 -0.011835447 0.020650899 0.024289593 0.043469418 0.013491102 0.04776984
-0.045666143 0.019920832 -0.0024130929 0.06156165 0.01918331 0.0058504785 -0.00896288 0.044139817
-0.046540808 0.04709239 0.02387107 -0.04115288 0.045892645 0.04102179 -0.031402633 0.047668893

fc1.bias f4 [120]
00000000: a205 59bc 9d84 8c3c e9c9 143d acea 0bbc
00000010: 74c2 3f3d 3fe6 793c 8445 6f3d 7cea a4bc
00000020: c1bc 9d3c fc73 39bd 3238 8a3b 3043 093d
00000030: d0c5 fcbc abfc 193d 207d ed3c 6476 50bd
00000040: ba6a e8bc 47a7 573c bb5f 293d 915f 983a
00000050: f22a 3f3d 42ec 36bd 4229 843c bc47 d43c
00000060: b9ac 76bc eafe 593d 8b8d cbbc 1c0b 20bd
00000070: 70ec 04bc f518 33bd f85b 0abd 237b 113a
00000080: 27a9 58bb 840d 133c 5305 143d 9db4 a93c
00000090: 31e2 4c3d 5aa9 813b 2e36 203d a778 493d
000000a0: 7fe0 2b3d 1677 173d 4c0f 09bc 8c17 0cbd
000000b0: 4c29 3dbd 3d0f 1c3c 1d81 47bd 97dd 433d
000000c0: 3e84 063d 6b79 dabc 6d4f 603b 93b0 083d
000000d0: f8a4 a53c 5c66 613d 7dbc ec3b 81a1 c23c
000000e0: 5f6f e43c 43f4 223d 7789 683d 2ea5 203c
000000f0: fd17 2f3c 7add 1c3d 158c fabb 5ed9 253c
00000100: 7a56 723c cfe1 b4bc a99a 2a3c 59a6 953c
00000110: 57c1 763d 03e0 6dbc 73dc b63c 90b3 343d
00000120: cfc0 13bd 276c 993a fe18 e83c 526f 21bd
00000130: 3e31 e93c f2b9 a1bb cf03 38bd c6f0 8abc
00000140: 7f46 2a3c f538 2d3d 7193 3abd 1915 8d3c
00000150: 1fc7 52bc b7c4 76bd e25e 3abc 711c 02bc
00000160: 2f8c 16bd 3df4 04bd 420e acbc 3c59 42bd
00000170: 498f 633d e5fb dcbc 5904 483d 8d81 9dbb
00000180: 16eb 54bc 1c16 b7bc 1243 d23c 65cb a73c
00000190: f890 cbbc b249 673d e369 86bb 3298 49bc
000001a0: 81a7 4dbd 70d9 663d a582 8fbc fca6 163d
000001b0: 6813 243d 80cb 90bc b271 80bb 7678 77bc
000001c0: b9ef 81bc 2215 f43c 00b2 b83c d25d cebc
000001d0: 4a79 5d3c 7d59 d5bb b824 043d 6ce2 273d
-0.013245972 0.017153079 0.03632537 -0.008539837 0.046816304 0.015252649 0.058415905 -0.020131342
0.019255044 -0.045276627 0.004218125 0.03351134 -0.030856043 0.03759448 0.028990328 -0.050894156
-0.028371204 0.013162441 0.04135106 0.0011625161 0.046671815 -0.044658907 0.016132955 0.025913112
-0.015055829 0.05322162 -0.024847766 -0.039073095 -0.008113012 -0.043724973 -0.033779114 0.000554966
-0.0033059807 0.00897539 0.03613789 0.020716006 0.0500204 0.003956956 0.03911417 0.04918733
0.041962143 0.036978804 -0.008365463 -0.034202144 -0.046181962 0.009525117 -0.048707116 0.047818746
0.03284096 -0.026669225 0.003422703 0.03337152 0.020220265 0.055029258 0.007224618 0.023758652
0.027885137 0.039783727 0.05677172 0.009805007 0.010686872 0.038297154 -0.0076460936 0.010122625
0.014791125 -0.02208033 0.01041285 0.018267797 0.060242977 -0.014518741 0.022321915 0.044116557
-0.03607255 0.0011705206 0.02833223 -0.039412804 0.028465863 -0.0049354965 -0.044925507 -0.016960513
0.010392784 0.042290647 -0.045550767 0.017221974 -0.012864857 -0.060246196 -0.011375161 -0.007941351
-0.036754783 -0.032459486 -0.021002892 -0.04744838 0.05555657 -0.026975581 0.04883227 -0.0048067034
-0.012995502 -0.02234941 0.025666747 0.020482728 -0.0248494 0.056466766 -0.004101978 -0.012304353
-0.050208572 0.05635971 -0.01751835 0.036780342 0.04005757 -0.017675161 -0.0039198035 -0.015104404
-0.015861379 0.029795233 0.022545815 -0.025191221 0.013517687 -0.006510912 0.03226158 0.040987417

fc2.weight f4 [84, 120]
00000000: 7a12 c7bd c139 b43c ba38 a6bd 5314 6bbd
00000010: 0dae cabd a44a ad3c 625b 9dbd 5521 e6bd
00000020: 975b c23c 4b5f 21bc da24 43bb ffc0 94bd
00000030: ddb8 513d aa84 263c 0848 06bc 708f 47bb
00000040: ea7e edbd 6c38 e43d c9cd 3f3d 1662 07be
00000050: ec6a 33bd cced a63d 303b 0abc b5bc 57ba
00000060: 98d9 ba3d b507 b23d 4277 333b 4e3f e8bd
00000070: 2217 f23c 62d7 933c 265a 8d3d eb49 57bb
00000080: 4f2f 8cbd dcf9 f03d c54f adbd 4266 683d
00000090: 17a9 c73c 1c13 923c ae20 bdbc 13df 86bd
000000a0: ac11 5fbd dc5e debc 1158 b4bd 5650 be3c
000000b0: 192a 943d 6062 03be dd19 a7bc 74de 1a3d
000000c0: ff75 103e 099b b1bd 803b 6739 d3b7 4d3d
000000d0: 61fa b73c bfac 7a3d 049e fa3c 0b01 333d
000000e0: 7477 88bd 99aa 403d 94a5 e4bd e154 023c
000000f0: b466 e73d ad80 583c 6dbf 42bd a942 bcbd
00000100: 8f25 343d 96ec 44bc c35f 15bc e5ea 543d
00000110: f0e8 503d c32d da3c 281e 01be dcde 9e3d
00000120: ce5c c2bd 6f79 8ebd 8ee2 a03c b10b 723d
00000130: b0e4 c6bd 65d2 753d 9df9 dabc 74ad 0abe
00000140: b1ba 153e d318 843d 84ed fc3c 7388 05be
00000150: 7df4 e5bd d5ae c0bd adfb b4bc f72b 72bd
00000160: a852 703d 4e7c 143e c34d 6cbd e34c 843d
00000170: 854b 8e3d 02e3 4a3d 6659 173e 9ee4 b43d
00000180: 534f 2c3d 2995 a0bd 4672 c53d 59f6 90bd
00000190: 8777 d03d 5fad a23c 8fed 23bd 48a5 833d
000001a0: de28 0cbd f2fa aabc 6dcb 98bd c6a7 623d
000001b0: 548b 2f3d 67d8 b93d b492 81bd 8141 023e
000001c0: 89c4 9c3d 7aa4 fd3d 57cd aa3b f964 043e
000001d0: 81a4 f3bd 8cbd 9e3d 0f19 393e bd22 ad3d
000001e0: 9046 10bd 5592 2b3a 744b c83d 8711 68ba
000001f0: 5be5 11bd 12ba 92bd f5f9 de3d 5bf1 a6bb
00000200: c264 f5bc c57d 883d fb6b b2bd b2a2 8abd
00000210: b649 ad3d 0e9c ce3c 34eb 583d c10f cabb
00000220: c344 66bc 0a34 68bc 45d4 71bc dd72 23bc
00000230: f948 13bc 6d92 c03d 684a 963d 7911 5a3d
00000240: c580 043d abaa cabc 6096 d83d de6b cbbc
00000250: 96cc d03d 51e9 5abd f1f6 89bd 9c92 973d
00000260: c422 473d 2e4b a43c b488 f03c 7a39 3e3d
00000270: 8b8a 94bd 55f4 343d d2f1 adbd e343 53bc
00000280: b15b 65bd 3a4c a2bd 2ac7 38bd 1538 a1bd
00000290: fb58 94bd ba79 cc3d 8feb 8f3d d74d 37bd
000002a0: dbc6 90bd dc34 513d c6e5 61bd d767 3cbd
000002b0: e368 1dbc 837c 23bd cb92 123d 5fc6 edba
000002c0: 597b c63b 1dcb f6bd 5a78 123b 697b 323d
000002d0: 7f0e 12bd 53b1 cf3c e7a5 4d3c f41a 3fbd
000002e0: 9936 a7bd ae1d 07bd d90f 90bd ab0e 033e
000002f0: aa72 b5bd d097 dbbd ec1d a13d 7610 bbbb
00000300: a276 c9bc d0c9 f53d a24e a03c abbf cf3d
00000310: b684 a33c 72a2 be3d b627 80bd 1fe3 ae3d
00000320: 84b8 b7bd 49fc af3d 2fb7 1a3d 0f62 113d
00000330: 0ee4 9aba e420 e4bb 7077 20bc 4a8d 903d
00000340: 8403 ad3d 2ae3 ebbd e57b bcbb 1caf 143d
00000350: 31a0 833d 3bb8 76bd 7efd 1d3d 3ced b83d
00000360: c640 a53d d4f1 4b3d 97de 7bbc dc21 a73d
00000370: 6788 9cbc 2c4a 82bc 5a06 8c3d 0904 59bd
00000380: a7db 463d 6e16 eabb 3286 b6bd a61c ff3d
00000390: 7cc2 453c 9c52 52bb 8ed1 253d 001d 413d
000003a0: 9bac d03c cb18 04bd 8698 e13d c6ad a73c
000003b0: 9add 2e3d 1d83 913d c195 a0bd 3d96 b33d
000003c0: 92e3 cbbb 7e5e b73d 83d5 f43b 6142 a3bc
000003d0: bc4d bc3d 7322 833d 67f0 2e3d d3a4 9dbd
000003e0: 4cfb 0a3e c29f 01bd c1da 45bd 4b69 7d3c
000003f0: fc82 013d 3d14 8a3c 248f 403c faf6 e4bd
-0.09720321 0.022000195 -0.081162885 -0.05739243 -0.09896479 0.021153755 -0.076834455 -0.11236826
0.023725314 -0.00984938 -0.0029776604 -0.072633736 0.05120169 0.0101634655 -0.0081958845 -0.0030450486
-0.115964726 0.11143574 0.04682711 -0.1322101 -0.04380314 0.08150825 -0.008436963 -0.00082297187
0.09123534 0.08692876 0.0027384316 -0.113401994 0.029552046 0.018047038 0.0690196 -0.0032850455
-0.06844961 0.11766407 -0.084624805 0.056738146 0.02437262 0.017831378 -0.023086872 -0.06585517
-0.054460213 -0.027144842 -0.0880586 0.023231667 0.07234592 -0.12830496 -0.020398075 0.037809804
0.14107512 -0.08672149 0.00022052042 0.050224137 0.022458257 0.0611999 0.030592926 0.043702167
-0.06663409 0.047037695 -0.11164394 0.007954807 0.11298886 0.013214272 -0.04754584 -0.09192402
0.04398113 -0.012019297 -0.00911707 0.051981825 0.051003397 0.026633149 -0.1260916 0.07757351
-0.09490357 -0.06956755 0.01963928 0.05909318 -0.097115874 0.0600151 -0.026730353 -0.1354273
0.14621998 0.06450047 0.030874975 -0.13040332 -0.11228273 -0.094083466 -0.022092665 -0.05912396
0.058672577 0.14500543 -0.057691347 0.064599775 0.06947998 0.049532898 0.14780197 0.08832668
0.042067837 -0.0784095 0.096409366 -0.07078237 0.10179048 0.01985806 -0.040021475 0.06428009
-0.03421866 -0.020871613 -0.074606754 0.055335782 0.042857483 0.090744786 -0.063268095 0.127203
0.076546736 0.12384887 0.0052124667 0.12929143 -0.11896611 0.07750997 0.18075965 0.084538914
-0.035223544 0.00065449375 0.097800165 -0.00088527094 -0.03561912 -0.07164396 0.10887519 -0.00509469
-0.029955272 0.06664614 -0.08712002 -0.06769313 0.08461325 0.025220897 0.052958682 -0.006166429
-0.01405448 -0.014172563 -0.014760082 -0.009976116 -0.008989566 0.094029285 0.073384106 0.05323932
0.032349367 -0.024739584 0.10575557 -0.024831709 0.10195272 -0.053445164 -0.067365535 0.074010104
0.04861714 0.02005538 0.02936206 0.046441533 -0.072529875 0.044178326 -0.08493389 -0.012894603
-0.055995647 -0.07924695 -0.045111813 -0.07872025 -0.07243534 0.09984155 0.07027351 -0.04475197
-0.07069179 0.0510758 -0.05515077 -0.045997467 -0.0096075265 -0.039913666 0.035784524 -0.0018140784
0.0060571847 -0.120504595 0.0022349567 0.043574724 -0.035658356 0.02535311 0.012551761 -0.046656564
-0.081647106 -0.03298729 -0.07034273 0.12798564 -0.08859761 -0.10722315 0.07867035 -0.0057087494
-0.024592701 0.12001383 0.019568745 0.1014398 0.019960742 0.09308328 -0.06257574 0.08539414
-0.089707404 0.085930414 0.037772354 0.035493907 -0.0011817233 -0.0069619287 -0.009794101 0.07058199
0.08447936 -0.115179375 -0.005752074 0.03629981 0.064270385 -0.06023429 0.038571827 0.09029624
0.08068995 0.049791172 -0.015372894 0.08160755 -0.01910801 -0.015904509 0.06837149 -0.052982364
0.04854932 -0.007143787 -0.089123145 0.12456636 0.0120702945 -0.0032092696 0.04048305 0.047146797
0.02547293 -0.032250207 0.1101542 0.020468604 0.042691804 0.07105086 -0.07841063 0.0876889
-0.006222197 0.0895357 0.0074717416 -0.019929113 0.09194514 0.06403055 0.042709734 -0.07697453
0.13572425 -0.031646498 -0.048304323 0.015466998 0.031619057 0.016855353 0.011752877 -0.111799195

fc2.bias f4 [84]
00000000: 3edf 823c 0a88 a53d 6d8f ad3c 3fe5 e9bc
00000010: 0cfd 9c3d d7a1 e3bc efa6 abbd c464 01bc
00000020: 6c65 4b3d dc3e 59bd 0ca1 b13d e9b1 c43d
00000030: f17e 433d 8654 a73d a4f4 4dbc f4fa 6d3b
00000040: cea9 e83d 357f e33c 6261 b63d 8d55 953d
00000050: e062 91bd 00b2 b2bd 500f abbd 76d7 843c
00000060: 148c b63d 768f 763c 177c 953d 5905 59bd
00000070: deed b53c 66c3 553d 8d22 173d c487 0a3e
00000080: 0035 d33d d1e1 853b e2e6 78bd 79b1 68bd
00000090: 921f 0cbc eca5 253d b753 a63b a02e 72bd
000000a0: 9ada 61bd d155 52bd 4fed 3fbd 9473 58bd
000000b0: 7acd 38bd 0e32 923d 9fd1 983c 5591 233d
000000c0: 0b77 bb3c 5ba3 74bd 221b 41bd 91cc bb3d
000000d0: 01b4 a03d c65e 03bd 3a85 9d3d e027 91bd
000000e0: ff1f 92bd ba71 cbbc 8cdf c43d a8e7 be3d
000000f0: 87c5 433d db60 b83d 0a26 93bd 4d03 72bd
00000100: 2375 033d 58d2 58bd 42bd ccbc 89b4 c03d
00000110: d7bb 293d 6a33 5fbb 4ef9 c93d 8afb 4fbd
00000120: d295 8fbd 4546 1dbd ee5f 263d 4890 e23d
00000130: 266c dabc 6912 003c 317f b83d 905c 91bc
00000140: 00e7 103d 3c13 9b3d db0d 4abd d681 583d
0.01597559 0.08082588 0.021186555 -0.028551696 0.07665452 -0.027787132 -0.083814494 -0.00789756
0.04965727 -0.053038463 0.086732954 0.09604246 0.047728483 0.081704184 -0.012570534 0.003631291
0.11360513 0.027770618 0.08905293 0.07291708 -0.07098937 -0.08725357 -0.0835253 0.016216021
0.089134365 0.015048852 0.07299059 -0.052983616 0.02220815 0.0521883 0.036898185 0.13528353
0.10312843 0.0040857573 -0.060767062 -0.056809876 -0.008552449 0.04044144 0.0050758976 -0.059126496
-0.055140115 -0.051351372 -0.046857174 -0.0528446 -0.045117833 0.071384534 0.018654643 0.03993352
0.022883913 -0.0597261 -0.047145016 0.09169877 0.07846833 -0.032072805 0.076914266 -0.07087684
-0.07135009 -0.024834502 0.09612951 0.09321529 0.0477958 0.09002849 -0.0718499 -0.05908518
0.032094132 -0.052934974 -0.024992589 0.09409434 0.041438904 -0.0034057745 0.09862004 -0.050776996
-0.07010998 -0.038397092 0.04061883 0.11062676 -0.026662897 0.007816889 0.09008635 -0.017744333
0.03537655 0.07572028 -0.04932962 0.052858196

fc3.weight f4 [10, 84]
00000000: bdf9 3f3e bd85 5bbd bfea 08be 8079 c83d
00000010: a3b6 07be 4244 9abe 8f4c 703d b0c7 c6bd
00000020: d1f9 933d 69a1 253d 7864 a93e 1d54 c2be
00000030: 4297 d93d 60aa c3bd 2cb5 c0bd a2eb 9b3d
00000040: 22f8 8cbe be4d 883e e847 d13d 92c9 ac3c
00000050: cd93 453d 1966 adbd 22ac 153d abe0 7e3e
00000060: 8627 eebc 028c 18be 2981 90be 22fb e13d
00000070: 0756 1c3d 5558 a6bd a060 04bc 935b 2fbe
00000080: 63a2 083e 8759 f2bd a2d0 a43d 6399 dfbc
00000090: 9a03 a13d dbd3 84bd 9d3c 6f3a 7aeb 113e
000000a0: cce6 6abc bb1a db3d 9973 65bd 6a8e f63d
000000b0: 2809 b03d 6fe3 3b3e 973d 6a3d 3b42 0e3e
000000c0: 2f56 6bbd 0837 d23d ab7f bcbd 9ca4 f73d
000000d0: dfa0 7fbe edd9 78bd d0df 33be 0f19 73bd
000000e0: 1713 303e 5198 653d a232 0dbd fa1f f33d
000000f0: 5ded ad3e 8d67 46bd e366 a6bd ad17 aabd
00000100: 1ce5 273e 7b46 e53d 7bdc a4bc 8c55 0abe
00000110: 34cc 6bbe f809 46bd 3884 1fbe 66f7 113c
00000120: fa0b 35be 9a58 c6bd e5c8 69be a66a 1dbd
00000130: c219 143e 97df 433e 132f 22be 0581 8bbd
00000140: 293f 483d 906d c53d 9100 95bd 7719 9ebd
00000150: 5a0f 5abe af03 303e 121e b13e 4e89 a0bd
00000160: 1ef9 bd3c bd9e 48be c4fe d1bd c98f 14be
00000170: 3c90 29be a565 1c3c d797 d2bc f2d4 f53d
00000180: f86e abbd 2ea2 78bd 971a a2bd c4b2 6c3e
00000190: fd1f 103e 497c 28bc a080 39be 5d70 29be
000001a0: 50b8 9fbd b0e6 3b3d 6279 593d 3960 34be
000001b0: 3da5 853e 48cc 68be 9d1e 0cbd 7da0 d2bc
000001c0: 7b39 fdbc cb35 b2bd a4ce cc3e 3e34 963e
000001d0: f0ce 4a3e cc73 1d3e d058 f6bd adcc 033d
000001e0: 1072 1a3d dc55 e1bc 0503 0abc c60e 893b
000001f0: 4478 9d3d cfdc 523d a9b5 3c3e f2df 94bd
00000200: 7668 76bc 1d66 8dbe fc9a c8bd 455a 56be
00000210: 5e2f a73d 177a aa3d 3981 243e 907b 21be
00000220: fd9e 013d 9dd1 e93d 1372 c0bd e007 bbbc
00000230: 671e 4bbe 70bc 74be 5cf2 133e 9bb1 113d
00000240: 539a a13c 4c81 903e f5d2 c0bd a5ba 29be
00000250: 2d6f 9abd f0c7 75bd b5be 113e 7a24 1ebe
00000260: 6ef5 723e 7b23 953d 2b12 8abe 3b20 19be
00000270: 6b3d dd3c 3b66 9cbd b877 b2bd 84e4 a03d
00000280: 6dab 843e f35d 3c3e cfeb 813e 3a5b 7bbe
00000290: 459f 3cbe 1afb 60bc 0c8c 153d f788 e8bd
000002a0: 059d 12bd f3e3 853e 7303 26be a005 443d
000002b0: e263 1b3c f922 38be 57ef 883d 7ac9 3d3e
000002c0: ecc7 343d d024 c23c ed9a 6f3d fefe e8bd
000002d0: 1c28 033e da1c 81be fede 26be 42f9 1fbe
000002e0: 8250 8fbe 175f 74be 2a26 0abe a540 0e3d
000002f0: 98bb 0f3e 2246 263e 6437 c63d 4488 823d
00000300: fa9b ac3d dfd2 7d3e 209c 003c 6cf2 2f3e
00000310: 4451 973d e54d 03be f478 393e 5e3a 5bbe
00000320: ab82 48be b59f 563c 208b adba b828 8bbb
00000330: 60a9 72bd aaa7 44b9 afb4 b63d 7923 c13d
00000340: 810f 97bd 7069 ad3d 9e54 1d3e 22a3 4abd
00000350: 8096 3ebd 1101 803e a10b 063e 7562 2fbe
00000360: d38b 1fbe 748e 3bbc 62b8 b4bd 68ff 16be
00000370: 8ce4 963e 53cc 9abd fbc7 81b8 f8ec bf3d
00000380: 80c4 b43d 1889 d0bc a2ce 8cbe 1e19 023d
00000390: 95e8 47bd af39 0d3e bb04 3cbc 79dc 7c3e
000003a0: 4d9b 763e 9b2d 89bd 7e3b 85bd 64b6 263e
000003b0: 2187 7b3e d1a1 983e bac4 4ebe 91b5 45be
000003c0: 1169 7a3d e31c fa3c b9d0 d4bd 2306 74be
000003d0: acf7 ca3c 5f3e cebd 6aca 793d ef7e 81be
000003e0: a332 4fbd de56 3bbd 4f8e 763e 91c8 f3bd
000003f0: 2dac 83bd 58d0 ae3c c1f8 2ebe 5d95 963d
0.18747611 -0.05359434 -0.13370799 0.09788799 -0.13253264 -0.30130202 0.058666762 -0.09706056
0.07225383 0.040437136 0.33084464 -0.37954798 0.10624553 -0.09553981 -0.09409556 0.07613303
-0.2753306 0.26621813 0.10218793 0.02109221 0.048236657 -0.08466739 0.03654111 0.24890392
-0.02907158 -0.14897159 -0.2822354 0.11034228 0.03816798 -0.08122317 -0.008079678 -0.17124777
0.13343196 -0.11833482 0.08047606 -0.02729482 0.07862015 -0.06485721 0.00091261585 0.14249983
-0.014337253 0.10698458 -0.056018446 0.12038882 0.085954964 0.18348478 0.057187643 0.13892452
-0.057455238 0.10264403 -0.09204038 0.120919436 -0.24963711 -0.060754705 -0.17565846 -0.05935007
0.17194782 0.056053463 -0.034472115 0.118713334 0.33970156 -0.048438597 -0.08125093 -0.08305297
0.16395992 0.11195084 -0.020124665 -0.13509196 -0.23027116 -0.04834935 -0.15577781 0.008909082
-0.1768035 -0.09684868 -0.22830541 -0.038431786 0.14462951 0.19128262 -0.1583827 -0.06811718
0.04888836 0.09640038 -0.07275499 -0.07719701 -0.21294919 0.17188905 0.34593254 -0.07838689
0.023190077 -0.19591804 -0.10253671 -0.14507975 -0.16558927 0.009545718 -0.025707169 0.12003507
-0.08370775 -0.06070154 -0.07915228 0.23115069 0.14074703 -0.010283538 -0.18115473 -0.1654677
-0.07798827 0.045874298 0.053094275 -0.17614831 0.2610263 -0.22734177 -0.034208883 -0.025711292
-0.030911198 -0.087016664 0.40001404 0.29336733 0.19805503 0.15376204 -0.120286584 0.032177616
0.037706435 -0.027506761 -0.0084235715 0.0041826693 0.076889545 0.05148011 0.18428673 -0.07269277
-0.015039554 -0.2761697 -0.09795186 -0.20932873 0.081633314 0.08324068 0.1606492 -0.15769792
0.031645764 0.11416934 -0.09396758 -0.022830904 -0.19835816 -0.23900008 0.14447922 0.03556977
0.019726908 0.28223646 -0.09415237 -0.16575105 -0.07540736 -0.06000513 0.14232905 -0.15443602
0.23726436 0.07282158 -0.26966986 -0.14953701 0.027006825 -0.076366864 -0.08714241 0.07856086
0.25912037 0.18395214 0.2537522 -0.24546519 -0.18420132 -0.013731742 0.036510512 -0.11354249
-0.035794277 0.26150474 -0.16212253 0.047856927 0.009484263 -0.17982091 0.066862755 0.18533888
0.044135973 0.023699194 0.058497358 -0.11376761 0.1280827 -0.25217324 -0.16296002 -0.15622428
-0.2799111 -0.23864399 -0.13491121 0.03472962 0.14036405 0.16237691 0.09678534 0.06373647
0.08428188 0.24787472 0.007849723 0.1718232 0.07388547 -0.12822683 0.18112546 -0.21408984
-0.19581096 0.013099601 -0.0013240315 -0.0042467974 -0.05924356 -0.00018754476 0.089211814 0.09430594
-0.07376004 0.08467376 0.1536431 -0.04947198 -0.046530247 0.25000814 0.13090374 -0.17127402
-0.15580682 -0.011447538 -0.08824231 -0.14745867 0.29471242 -0.07558503 -6.1884486e-05 0.0937137
0.08826542 -0.025455996 -0.27501398 0.031762235 -0.048805792 0.13791536 -0.011475737 0.24693479
0.2408268 -0.06698152 -0.06505488 0.16280514 0.24563266 0.29810956 -0.20192233 -0.19307543
0.061135355 0.030531352 -0.10391373 -0.23830466 0.024776302 -0.1007049 0.060984053 -0.25292155
-0.0505854 -0.04573714 0.24077724 -0.119034894 -0.06429324 0.02133958 -0.1708708 0.073527075

fc3.bias f4 [10]
00000000: 0a77 4dbe ccbb f33d f290 a5bc 1101 053d
00000010: 5619 03be f4f2 98bc 7489 89bd b60f 5c3c
00000020: 18dd 2dbd e519 963d
-0.20064941 0.11901054 -0.020210717 0.03247172 -0.12802634 -0.018670537 -0.0671567 0.01343148
-0.04244718 0.07329158
